{"class_name": "Model", "keras_version": "2.2.2", "config": {"layers": [{"class_name": "InputLayer", "config": {"dtype": "float32", "batch_input_shape": [null, 224, 224, 20], "name": "input_1", "sparse": false}, "inbound_nodes": [], "name": "input_1"}, {"class_name": "Conv2D", "config": {"kernel_constraint": null, "kernel_initializer": {"class_name": "VarianceScaling", "config": {"distribution": "normal", "scale": 2.0, "seed": null, "mode": "fan_in"}}, "name": "stem_conv1", "bias_regularizer": null, "bias_constraint": null, "activation": "linear", "trainable": true, "data_format": "channels_last", "padding": "valid", "strides": [2, 2], "dilation_rate": [1, 1], "kernel_regularizer": null, "filters": 32, "bias_initializer": {"class_name": "Zeros", "config": {}}, "use_bias": false, "activity_regularizer": null, "kernel_size": [3, 3]}, "inbound_nodes": [[["input_1", 0, 0, {}]]], "name": "stem_conv1"}, {"class_name": "BatchNormalization", "config": {"beta_constraint": null, "gamma_initializer": {"class_name": "Ones", "config": {}}, "moving_mean_initializer": {"class_name": "Zeros", "config": {}}, "name": "stem_bn1", "epsilon": 0.001, "trainable": true, "moving_variance_initializer": {"class_name": "Ones", "config": {}}, "beta_initializer": {"class_name": "Zeros", "config": {}}, "scale": true, "axis": -1, "gamma_constraint": null, "gamma_regularizer": null, "beta_regularizer": null, "momentum": 0.9997, "center": true}, "inbound_nodes": [[["stem_conv1", 0, 0, {}]]], "name": "stem_bn1"}, {"class_name": "Activation", "config": {"activation": "relu", "trainable": true, "name": "activation_1"}, "inbound_nodes": [[["stem_bn1", 0, 0, {}]]], "name": "activation_1"}, {"class_name": "Conv2D", "config": {"kernel_constraint": null, "kernel_initializer": {"class_name": "VarianceScaling", "config": {"distribution": "normal", "scale": 2.0, "seed": null, "mode": "fan_in"}}, "name": "reduction_conv_1_stem_1", "bias_regularizer": null, "bias_constraint": null, "activation": "linear", "trainable": true, "data_format": "channels_last", "padding": "same", "strides": [1, 1], "dilation_rate": [1, 1], "kernel_regularizer": null, "filters": 11, "bias_initializer": {"class_name": "Zeros", "config": {}}, "use_bias": false, "activity_regularizer": null, "kernel_size": [1, 1]}, "inbound_nodes": [[["activation_1", 0, 0, {}]]], "name": "reduction_conv_1_stem_1"}, {"class_name": "BatchNormalization", "config": {"beta_constraint": null, "gamma_initializer": {"class_name": "Ones", "config": {}}, "moving_mean_initializer": {"class_name": "Zeros", "config": {}}, "name": "reduction_bn_1_stem_1", "epsilon": 0.001, "trainable": true, "moving_variance_initializer": {"class_name": "Ones", "config": {}}, "beta_initializer": {"class_name": "Zeros", "config": {}}, "scale": true, "axis": -1, "gamma_constraint": null, "gamma_regularizer": null, "beta_regularizer": null, "momentum": 0.9997, "center": true}, "inbound_nodes": [[["reduction_conv_1_stem_1", 0, 0, {}]]], "name": "reduction_bn_1_stem_1"}, {"class_name": "Activation", "config": {"activation": "relu", "trainable": true, "name": "activation_2"}, "inbound_nodes": [[["reduction_bn_1_stem_1", 0, 0, {}]]], "name": "activation_2"}, {"class_name": "Activation", "config": {"activation": "relu", "trainable": true, "name": "activation_4"}, "inbound_nodes": [[["stem_bn1", 0, 0, {}]]], "name": "activation_4"}, {"class_name": "SeparableConv2D", "config": {"padding": "same", "use_bias": false, "bias_regularizer": null, "pointwise_initializer": {"class_name": "VarianceScaling", "config": {"distribution": "uniform", "scale": 1.0, "seed": null, "mode": "fan_avg"}}, "bias_constraint": null, "activity_regularizer": null, "trainable": true, "pointwise_constraint": null, "data_format": "channels_last", "depthwise_initializer": {"class_name": "VarianceScaling", "config": {"distribution": "uniform", "scale": 1.0, "seed": null, "mode": "fan_avg"}}, "depthwise_constraint": null, "strides": [2, 2], "pointwise_regularizer": null, "filters": 11, "bias_initializer": {"class_name": "Zeros", "config": {}}, "depth_multiplier": 1, "dilation_rate": [1, 1], "depthwise_regularizer": null, "activation": "linear", "kernel_size": [5, 5], "name": "separable_conv_1_reduction_left1_stem_1"}, "inbound_nodes": [[["activation_2", 0, 0, {}]]], "name": "separable_conv_1_reduction_left1_stem_1"}, {"class_name": "SeparableConv2D", "config": {"padding": "same", "use_bias": false, "bias_regularizer": null, "pointwise_initializer": {"class_name": "VarianceScaling", "config": {"distribution": "uniform", "scale": 1.0, "seed": null, "mode": "fan_avg"}}, "bias_constraint": null, "activity_regularizer": null, "trainable": true, "pointwise_constraint": null, "data_format": "channels_last", "depthwise_initializer": {"class_name": "VarianceScaling", "config": {"distribution": "uniform", "scale": 1.0, "seed": null, "mode": "fan_avg"}}, "depthwise_constraint": null, "strides": [2, 2], "pointwise_regularizer": null, "filters": 11, "bias_initializer": {"class_name": "Zeros", "config": {}}, "depth_multiplier": 1, "dilation_rate": [1, 1], "depthwise_regularizer": null, "activation": "linear", "kernel_size": [7, 7], "name": "separable_conv_1_reduction_right1_stem_1"}, "inbound_nodes": [[["activation_4", 0, 0, {}]]], "name": "separable_conv_1_reduction_right1_stem_1"}, {"class_name": "BatchNormalization", "config": {"beta_constraint": null, "gamma_initializer": {"class_name": "Ones", "config": {}}, "moving_mean_initializer": {"class_name": "Zeros", "config": {}}, "name": "separable_conv_1_bn_reduction_left1_stem_1", "epsilon": 0.001, "trainable": true, "moving_variance_initializer": {"class_name": "Ones", "config": {}}, "beta_initializer": {"class_name": "Zeros", "config": {}}, "scale": true, "axis": -1, "gamma_constraint": null, "gamma_regularizer": null, "beta_regularizer": null, "momentum": 0.9997, "center": true}, "inbound_nodes": [[["separable_conv_1_reduction_left1_stem_1", 0, 0, {}]]], "name": "separable_conv_1_bn_reduction_left1_stem_1"}, {"class_name": "BatchNormalization", "config": {"beta_constraint": null, "gamma_initializer": {"class_name": "Ones", "config": {}}, "moving_mean_initializer": {"class_name": "Zeros", "config": {}}, "name": "separable_conv_1_bn_reduction_right1_stem_1", "epsilon": 0.001, "trainable": true, "moving_variance_initializer": {"class_name": "Ones", "config": {}}, "beta_initializer": {"class_name": "Zeros", "config": {}}, "scale": true, "axis": -1, "gamma_constraint": null, "gamma_regularizer": null, "beta_regularizer": null, "momentum": 0.9997, "center": true}, "inbound_nodes": [[["separable_conv_1_reduction_right1_stem_1", 0, 0, {}]]], "name": "separable_conv_1_bn_reduction_right1_stem_1"}, {"class_name": "Activation", "config": {"activation": "relu", "trainable": true, "name": "activation_3"}, "inbound_nodes": [[["separable_conv_1_bn_reduction_left1_stem_1", 0, 0, {}]]], "name": "activation_3"}, {"class_name": "Activation", "config": {"activation": "relu", "trainable": true, "name": "activation_5"}, "inbound_nodes": [[["separable_conv_1_bn_reduction_right1_stem_1", 0, 0, {}]]], "name": "activation_5"}, {"class_name": "SeparableConv2D", "config": {"padding": "same", "use_bias": false, "bias_regularizer": null, "pointwise_initializer": {"class_name": "VarianceScaling", "config": {"distribution": "uniform", "scale": 1.0, "seed": null, "mode": "fan_avg"}}, "bias_constraint": null, "activity_regularizer": null, "trainable": true, "pointwise_constraint": null, "data_format": "channels_last", "depthwise_initializer": {"class_name": "VarianceScaling", "config": {"distribution": "uniform", "scale": 1.0, "seed": null, "mode": "fan_avg"}}, "depthwise_constraint": null, "strides": [1, 1], "pointwise_regularizer": null, "filters": 11, "bias_initializer": {"class_name": "Zeros", "config": {}}, "depth_multiplier": 1, "dilation_rate": [1, 1], "depthwise_regularizer": null, "activation": "linear", "kernel_size": [5, 5], "name": "separable_conv_2_reduction_left1_stem_1"}, "inbound_nodes": [[["activation_3", 0, 0, {}]]], "name": "separable_conv_2_reduction_left1_stem_1"}, {"class_name": "SeparableConv2D", "config": {"padding": "same", "use_bias": false, "bias_regularizer": null, "pointwise_initializer": {"class_name": "VarianceScaling", "config": {"distribution": "uniform", "scale": 1.0, "seed": null, "mode": "fan_avg"}}, "bias_constraint": null, "activity_regularizer": null, "trainable": true, "pointwise_constraint": null, "data_format": "channels_last", "depthwise_initializer": {"class_name": "VarianceScaling", "config": {"distribution": "uniform", "scale": 1.0, "seed": null, "mode": "fan_avg"}}, "depthwise_constraint": null, "strides": [1, 1], "pointwise_regularizer": null, "filters": 11, "bias_initializer": {"class_name": "Zeros", "config": {}}, "depth_multiplier": 1, "dilation_rate": [1, 1], "depthwise_regularizer": null, "activation": "linear", "kernel_size": [7, 7], "name": "separable_conv_2_reduction_right1_stem_1"}, "inbound_nodes": [[["activation_5", 0, 0, {}]]], "name": "separable_conv_2_reduction_right1_stem_1"}, {"class_name": "BatchNormalization", "config": {"beta_constraint": null, "gamma_initializer": {"class_name": "Ones", "config": {}}, "moving_mean_initializer": {"class_name": "Zeros", "config": {}}, "name": "separable_conv_2_bn_reduction_left1_stem_1", "epsilon": 0.001, "trainable": true, "moving_variance_initializer": {"class_name": "Ones", "config": {}}, "beta_initializer": {"class_name": "Zeros", "config": {}}, "scale": true, "axis": -1, "gamma_constraint": null, "gamma_regularizer": null, "beta_regularizer": null, "momentum": 0.9997, "center": true}, "inbound_nodes": [[["separable_conv_2_reduction_left1_stem_1", 0, 0, {}]]], "name": "separable_conv_2_bn_reduction_left1_stem_1"}, {"class_name": "BatchNormalization", "config": {"beta_constraint": null, "gamma_initializer": {"class_name": "Ones", "config": {}}, "moving_mean_initializer": {"class_name": "Zeros", "config": {}}, "name": "separable_conv_2_bn_reduction_right1_stem_1", "epsilon": 0.001, "trainable": true, "moving_variance_initializer": {"class_name": "Ones", "config": {}}, "beta_initializer": {"class_name": "Zeros", "config": {}}, "scale": true, "axis": -1, "gamma_constraint": null, "gamma_regularizer": null, "beta_regularizer": null, "momentum": 0.9997, "center": true}, "inbound_nodes": [[["separable_conv_2_reduction_right1_stem_1", 0, 0, {}]]], "name": "separable_conv_2_bn_reduction_right1_stem_1"}, {"class_name": "Activation", "config": {"activation": "relu", "trainable": true, "name": "activation_6"}, "inbound_nodes": [[["stem_bn1", 0, 0, {}]]], "name": "activation_6"}, {"class_name": "Add", "config": {"trainable": true, "name": "reduction_add_1_stem_1"}, "inbound_nodes": [[["separable_conv_2_bn_reduction_left1_stem_1", 0, 0, {}], ["separable_conv_2_bn_reduction_right1_stem_1", 0, 0, {}]]], "name": "reduction_add_1_stem_1"}, {"class_name": "SeparableConv2D", "config": {"padding": "same", "use_bias": false, "bias_regularizer": null, "pointwise_initializer": {"class_name": "VarianceScaling", "config": {"distribution": "uniform", "scale": 1.0, "seed": null, "mode": "fan_avg"}}, "bias_constraint": null, "activity_regularizer": null, "trainable": true, "pointwise_constraint": null, "data_format": "channels_last", "depthwise_initializer": {"class_name": "VarianceScaling", "config": {"distribution": "uniform", "scale": 1.0, "seed": null, "mode": "fan_avg"}}, "depthwise_constraint": null, "strides": [2, 2], "pointwise_regularizer": null, "filters": 11, "bias_initializer": {"class_name": "Zeros", "config": {}}, "depth_multiplier": 1, "dilation_rate": [1, 1], "depthwise_regularizer": null, "activation": "linear", "kernel_size": [7, 7], "name": "separable_conv_1_reduction_right2_stem_1"}, "inbound_nodes": [[["activation_6", 0, 0, {}]]], "name": "separable_conv_1_reduction_right2_stem_1"}, {"class_name": "Activation", "config": {"activation": "relu", "trainable": true, "name": "activation_8"}, "inbound_nodes": [[["stem_bn1", 0, 0, {}]]], "name": "activation_8"}, {"class_name": "Activation", "config": {"activation": "relu", "trainable": true, "name": "activation_10"}, "inbound_nodes": [[["reduction_add_1_stem_1", 0, 0, {}]]], "name": "activation_10"}, {"class_name": "BatchNormalization", "config": {"beta_constraint": null, "gamma_initializer": {"class_name": "Ones", "config": {}}, "moving_mean_initializer": {"class_name": "Zeros", "config": {}}, "name": "separable_conv_1_bn_reduction_right2_stem_1", "epsilon": 0.001, "trainable": true, "moving_variance_initializer": {"class_name": "Ones", "config": {}}, "beta_initializer": {"class_name": "Zeros", "config": {}}, "scale": true, "axis": -1, "gamma_constraint": null, "gamma_regularizer": null, "beta_regularizer": null, "momentum": 0.9997, "center": true}, "inbound_nodes": [[["separable_conv_1_reduction_right2_stem_1", 0, 0, {}]]], "name": "separable_conv_1_bn_reduction_right2_stem_1"}, {"class_name": "SeparableConv2D", "config": {"padding": "same", "use_bias": false, "bias_regularizer": null, "pointwise_initializer": {"class_name": "VarianceScaling", "config": {"distribution": "uniform", "scale": 1.0, "seed": null, "mode": "fan_avg"}}, "bias_constraint": null, "activity_regularizer": null, "trainable": true, "pointwise_constraint": null, "data_format": "channels_last", "depthwise_initializer": {"class_name": "VarianceScaling", "config": {"distribution": "uniform", "scale": 1.0, "seed": null, "mode": "fan_avg"}}, "depthwise_constraint": null, "strides": [2, 2], "pointwise_regularizer": null, "filters": 11, "bias_initializer": {"class_name": "Zeros", "config": {}}, "depth_multiplier": 1, "dilation_rate": [1, 1], "depthwise_regularizer": null, "activation": "linear", "kernel_size": [5, 5], "name": "separable_conv_1_reduction_right3_stem_1"}, "inbound_nodes": [[["activation_8", 0, 0, {}]]], "name": "separable_conv_1_reduction_right3_stem_1"}, {"class_name": "SeparableConv2D", "config": {"padding": "same", "use_bias": false, "bias_regularizer": null, "pointwise_initializer": {"class_name": "VarianceScaling", "config": {"distribution": "uniform", "scale": 1.0, "seed": null, "mode": "fan_avg"}}, "bias_constraint": null, "activity_regularizer": null, "trainable": true, "pointwise_constraint": null, "data_format": "channels_last", "depthwise_initializer": {"class_name": "VarianceScaling", "config": {"distribution": "uniform", "scale": 1.0, "seed": null, "mode": "fan_avg"}}, "depthwise_constraint": null, "strides": [1, 1], "pointwise_regularizer": null, "filters": 11, "bias_initializer": {"class_name": "Zeros", "config": {}}, "depth_multiplier": 1, "dilation_rate": [1, 1], "depthwise_regularizer": null, "activation": "linear", "kernel_size": [3, 3], "name": "separable_conv_1_reduction_left4_stem_1"}, "inbound_nodes": [[["activation_10", 0, 0, {}]]], "name": "separable_conv_1_reduction_left4_stem_1"}, {"class_name": "Activation", "config": {"activation": "relu", "trainable": true, "name": "activation_7"}, "inbound_nodes": [[["separable_conv_1_bn_reduction_right2_stem_1", 0, 0, {}]]], "name": "activation_7"}, {"class_name": "BatchNormalization", "config": {"beta_constraint": null, "gamma_initializer": {"class_name": "Ones", "config": {}}, "moving_mean_initializer": {"class_name": "Zeros", "config": {}}, "name": "separable_conv_1_bn_reduction_right3_stem_1", "epsilon": 0.001, "trainable": true, "moving_variance_initializer": {"class_name": "Ones", "config": {}}, "beta_initializer": {"class_name": "Zeros", "config": {}}, "scale": true, "axis": -1, "gamma_constraint": null, "gamma_regularizer": null, "beta_regularizer": null, "momentum": 0.9997, "center": true}, "inbound_nodes": [[["separable_conv_1_reduction_right3_stem_1", 0, 0, {}]]], "name": "separable_conv_1_bn_reduction_right3_stem_1"}, {"class_name": "BatchNormalization", "config": {"beta_constraint": null, "gamma_initializer": {"class_name": "Ones", "config": {}}, "moving_mean_initializer": {"class_name": "Zeros", "config": {}}, "name": "separable_conv_1_bn_reduction_left4_stem_1", "epsilon": 0.001, "trainable": true, "moving_variance_initializer": {"class_name": "Ones", "config": {}}, "beta_initializer": {"class_name": "Zeros", "config": {}}, "scale": true, "axis": -1, "gamma_constraint": null, "gamma_regularizer": null, "beta_regularizer": null, "momentum": 0.9997, "center": true}, "inbound_nodes": [[["separable_conv_1_reduction_left4_stem_1", 0, 0, {}]]], "name": "separable_conv_1_bn_reduction_left4_stem_1"}, {"class_name": "SeparableConv2D", "config": {"padding": "same", "use_bias": false, "bias_regularizer": null, "pointwise_initializer": {"class_name": "VarianceScaling", "config": {"distribution": "uniform", "scale": 1.0, "seed": null, "mode": "fan_avg"}}, "bias_constraint": null, "activity_regularizer": null, "trainable": true, "pointwise_constraint": null, "data_format": "channels_last", "depthwise_initializer": {"class_name": "VarianceScaling", "config": {"distribution": "uniform", "scale": 1.0, "seed": null, "mode": "fan_avg"}}, "depthwise_constraint": null, "strides": [1, 1], "pointwise_regularizer": null, "filters": 11, "bias_initializer": {"class_name": "Zeros", "config": {}}, "depth_multiplier": 1, "dilation_rate": [1, 1], "depthwise_regularizer": null, "activation": "linear", "kernel_size": [7, 7], "name": "separable_conv_2_reduction_right2_stem_1"}, "inbound_nodes": [[["activation_7", 0, 0, {}]]], "name": "separable_conv_2_reduction_right2_stem_1"}, {"class_name": "Activation", "config": {"activation": "relu", "trainable": true, "name": "activation_9"}, "inbound_nodes": [[["separable_conv_1_bn_reduction_right3_stem_1", 0, 0, {}]]], "name": "activation_9"}, {"class_name": "Activation", "config": {"activation": "relu", "trainable": true, "name": "activation_11"}, "inbound_nodes": [[["separable_conv_1_bn_reduction_left4_stem_1", 0, 0, {}]]], "name": "activation_11"}, {"class_name": "MaxPooling2D", "config": {"name": "reduction_left2_stem_1", "trainable": true, "data_format": "channels_last", "pool_size": [3, 3], "padding": "same", "strides": [2, 2]}, "inbound_nodes": [[["reduction_bn_1_stem_1", 0, 0, {}]]], "name": "reduction_left2_stem_1"}, {"class_name": "BatchNormalization", "config": {"beta_constraint": null, "gamma_initializer": {"class_name": "Ones", "config": {}}, "moving_mean_initializer": {"class_name": "Zeros", "config": {}}, "name": "separable_conv_2_bn_reduction_right2_stem_1", "epsilon": 0.001, "trainable": true, "moving_variance_initializer": {"class_name": "Ones", "config": {}}, "beta_initializer": {"class_name": "Zeros", "config": {}}, "scale": true, "axis": -1, "gamma_constraint": null, "gamma_regularizer": null, "beta_regularizer": null, "momentum": 0.9997, "center": true}, "inbound_nodes": [[["separable_conv_2_reduction_right2_stem_1", 0, 0, {}]]], "name": "separable_conv_2_bn_reduction_right2_stem_1"}, {"class_name": "SeparableConv2D", "config": {"padding": "same", "use_bias": false, "bias_regularizer": null, "pointwise_initializer": {"class_name": "VarianceScaling", "config": {"distribution": "uniform", "scale": 1.0, "seed": null, "mode": "fan_avg"}}, "bias_constraint": null, "activity_regularizer": null, "trainable": true, "pointwise_constraint": null, "data_format": "channels_last", "depthwise_initializer": {"class_name": "VarianceScaling", "config": {"distribution": "uniform", "scale": 1.0, "seed": null, "mode": "fan_avg"}}, "depthwise_constraint": null, "strides": [1, 1], "pointwise_regularizer": null, "filters": 11, "bias_initializer": {"class_name": "Zeros", "config": {}}, "depth_multiplier": 1, "dilation_rate": [1, 1], "depthwise_regularizer": null, "activation": "linear", "kernel_size": [5, 5], "name": "separable_conv_2_reduction_right3_stem_1"}, "inbound_nodes": [[["activation_9", 0, 0, {}]]], "name": "separable_conv_2_reduction_right3_stem_1"}, {"class_name": "SeparableConv2D", "config": {"padding": "same", "use_bias": false, "bias_regularizer": null, "pointwise_initializer": {"class_name": "VarianceScaling", "config": {"distribution": "uniform", "scale": 1.0, "seed": null, "mode": "fan_avg"}}, "bias_constraint": null, "activity_regularizer": null, "trainable": true, "pointwise_constraint": null, "data_format": "channels_last", "depthwise_initializer": {"class_name": "VarianceScaling", "config": {"distribution": "uniform", "scale": 1.0, "seed": null, "mode": "fan_avg"}}, "depthwise_constraint": null, "strides": [1, 1], "pointwise_regularizer": null, "filters": 11, "bias_initializer": {"class_name": "Zeros", "config": {}}, "depth_multiplier": 1, "dilation_rate": [1, 1], "depthwise_regularizer": null, "activation": "linear", "kernel_size": [3, 3], "name": "separable_conv_2_reduction_left4_stem_1"}, "inbound_nodes": [[["activation_11", 0, 0, {}]]], "name": "separable_conv_2_reduction_left4_stem_1"}, {"class_name": "Activation", "config": {"activation": "relu", "trainable": true, "name": "adjust_relu_1_stem_2"}, "inbound_nodes": [[["stem_bn1", 0, 0, {}]]], "name": "adjust_relu_1_stem_2"}, {"class_name": "Add", "config": {"trainable": true, "name": "reduction_add_2_stem_1"}, "inbound_nodes": [[["reduction_left2_stem_1", 0, 0, {}], ["separable_conv_2_bn_reduction_right2_stem_1", 0, 0, {}]]], "name": "reduction_add_2_stem_1"}, {"class_name": "AveragePooling2D", "config": {"name": "reduction_left3_stem_1", "trainable": true, "data_format": "channels_last", "pool_size": [3, 3], "padding": "same", "strides": [2, 2]}, "inbound_nodes": [[["reduction_bn_1_stem_1", 0, 0, {}]]], "name": "reduction_left3_stem_1"}, {"class_name": "BatchNormalization", "config": {"beta_constraint": null, "gamma_initializer": {"class_name": "Ones", "config": {}}, "moving_mean_initializer": {"class_name": "Zeros", "config": {}}, "name": "separable_conv_2_bn_reduction_right3_stem_1", "epsilon": 0.001, "trainable": true, "moving_variance_initializer": {"class_name": "Ones", "config": {}}, "beta_initializer": {"class_name": "Zeros", "config": {}}, "scale": true, "axis": -1, "gamma_constraint": null, "gamma_regularizer": null, "beta_regularizer": null, "momentum": 0.9997, "center": true}, "inbound_nodes": [[["separable_conv_2_reduction_right3_stem_1", 0, 0, {}]]], "name": "separable_conv_2_bn_reduction_right3_stem_1"}, {"class_name": "AveragePooling2D", "config": {"name": "reduction_left4_stem_1", "trainable": true, "data_format": "channels_last", "pool_size": [3, 3], "padding": "same", "strides": [1, 1]}, "inbound_nodes": [[["reduction_add_1_stem_1", 0, 0, {}]]], "name": "reduction_left4_stem_1"}, {"class_name": "BatchNormalization", "config": {"beta_constraint": null, "gamma_initializer": {"class_name": "Ones", "config": {}}, "moving_mean_initializer": {"class_name": "Zeros", "config": {}}, "name": "separable_conv_2_bn_reduction_left4_stem_1", "epsilon": 0.001, "trainable": true, "moving_variance_initializer": {"class_name": "Ones", "config": {}}, "beta_initializer": {"class_name": "Zeros", "config": {}}, "scale": true, "axis": -1, "gamma_constraint": null, "gamma_regularizer": null, "beta_regularizer": null, "momentum": 0.9997, "center": true}, "inbound_nodes": [[["separable_conv_2_reduction_left4_stem_1", 0, 0, {}]]], "name": "separable_conv_2_bn_reduction_left4_stem_1"}, {"class_name": "MaxPooling2D", "config": {"name": "reduction_right5_stem_1", "trainable": true, "data_format": "channels_last", "pool_size": [3, 3], "padding": "same", "strides": [2, 2]}, "inbound_nodes": [[["reduction_bn_1_stem_1", 0, 0, {}]]], "name": "reduction_right5_stem_1"}, {"class_name": "ZeroPadding2D", "config": {"padding": [[0, 1], [0, 1]], "trainable": true, "name": "zero_padding2d_1", "data_format": "channels_last"}, "inbound_nodes": [[["adjust_relu_1_stem_2", 0, 0, {}]]], "name": "zero_padding2d_1"}, {"class_name": "Add", "config": {"trainable": true, "name": "reduction_add3_stem_1"}, "inbound_nodes": [[["reduction_left3_stem_1", 0, 0, {}], ["separable_conv_2_bn_reduction_right3_stem_1", 0, 0, {}]]], "name": "reduction_add3_stem_1"}, {"class_name": "Add", "config": {"trainable": true, "name": "add_1"}, "inbound_nodes": [[["reduction_add_2_stem_1", 0, 0, {}], ["reduction_left4_stem_1", 0, 0, {}]]], "name": "add_1"}, {"class_name": "Add", "config": {"trainable": true, "name": "reduction_add4_stem_1"}, "inbound_nodes": [[["separable_conv_2_bn_reduction_left4_stem_1", 0, 0, {}], ["reduction_right5_stem_1", 0, 0, {}]]], "name": "reduction_add4_stem_1"}, {"class_name": "Cropping2D", "config": {"cropping": [[1, 0], [1, 0]], "trainable": true, "name": "cropping2d_1", "data_format": "channels_last"}, "inbound_nodes": [[["zero_padding2d_1", 0, 0, {}]]], "name": "cropping2d_1"}, {"class_name": "Concatenate", "config": {"trainable": true, "name": "reduction_concat_stem_1", "axis": -1}, "inbound_nodes": [[["reduction_add_2_stem_1", 0, 0, {}], ["reduction_add3_stem_1", 0, 0, {}], ["add_1", 0, 0, {}], ["reduction_add4_stem_1", 0, 0, {}]]], "name": "reduction_concat_stem_1"}, {"class_name": "AveragePooling2D", "config": {"name": "adjust_avg_pool_1_stem_2", "trainable": true, "data_format": "channels_last", "pool_size": [1, 1], "padding": "valid", "strides": [2, 2]}, "inbound_nodes": [[["adjust_relu_1_stem_2", 0, 0, {}]]], "name": "adjust_avg_pool_1_stem_2"}, {"class_name": "AveragePooling2D", "config": {"name": "adjust_avg_pool_2_stem_2", "trainable": true, "data_format": "channels_last", "pool_size": [1, 1], "padding": "valid", "strides": [2, 2]}, "inbound_nodes": [[["cropping2d_1", 0, 0, {}]]], "name": "adjust_avg_pool_2_stem_2"}, {"class_name": "Activation", "config": {"activation": "relu", "trainable": true, "name": "activation_12"}, "inbound_nodes": [[["reduction_concat_stem_1", 0, 0, {}]]], "name": "activation_12"}, {"class_name": "Conv2D", "config": {"kernel_constraint": null, "kernel_initializer": {"class_name": "VarianceScaling", "config": {"distribution": "normal", "scale": 2.0, "seed": null, "mode": "fan_in"}}, "name": "adjust_conv_1_stem_2", "bias_regularizer": null, "bias_constraint": null, "activation": "linear", "trainable": true, "data_format": "channels_last", "padding": "same", "strides": [1, 1], "dilation_rate": [1, 1], "kernel_regularizer": null, "filters": 11, "bias_initializer": {"class_name": "Zeros", "config": {}}, "use_bias": false, "activity_regularizer": null, "kernel_size": [1, 1]}, "inbound_nodes": [[["adjust_avg_pool_1_stem_2", 0, 0, {}]]], "name": "adjust_conv_1_stem_2"}, {"class_name": "Conv2D", "config": {"kernel_constraint": null, "kernel_initializer": {"class_name": "VarianceScaling", "config": {"distribution": "normal", "scale": 2.0, "seed": null, "mode": "fan_in"}}, "name": "adjust_conv_2_stem_2", "bias_regularizer": null, "bias_constraint": null, "activation": "linear", "trainable": true, "data_format": "channels_last", "padding": "same", "strides": [1, 1], "dilation_rate": [1, 1], "kernel_regularizer": null, "filters": 11, "bias_initializer": {"class_name": "Zeros", "config": {}}, "use_bias": false, "activity_regularizer": null, "kernel_size": [1, 1]}, "inbound_nodes": [[["adjust_avg_pool_2_stem_2", 0, 0, {}]]], "name": "adjust_conv_2_stem_2"}, {"class_name": "Conv2D", "config": {"kernel_constraint": null, "kernel_initializer": {"class_name": "VarianceScaling", "config": {"distribution": "normal", "scale": 2.0, "seed": null, "mode": "fan_in"}}, "name": "reduction_conv_1_stem_2", "bias_regularizer": null, "bias_constraint": null, "activation": "linear", "trainable": true, "data_format": "channels_last", "padding": "same", "strides": [1, 1], "dilation_rate": [1, 1], "kernel_regularizer": null, "filters": 22, "bias_initializer": {"class_name": "Zeros", "config": {}}, "use_bias": false, "activity_regularizer": null, "kernel_size": [1, 1]}, "inbound_nodes": [[["activation_12", 0, 0, {}]]], "name": "reduction_conv_1_stem_2"}, {"class_name": "Concatenate", "config": {"trainable": true, "name": "concatenate_1", "axis": -1}, "inbound_nodes": [[["adjust_conv_1_stem_2", 0, 0, {}], ["adjust_conv_2_stem_2", 0, 0, {}]]], "name": "concatenate_1"}, {"class_name": "BatchNormalization", "config": {"beta_constraint": null, "gamma_initializer": {"class_name": "Ones", "config": {}}, "moving_mean_initializer": {"class_name": "Zeros", "config": {}}, "name": "reduction_bn_1_stem_2", "epsilon": 0.001, "trainable": true, "moving_variance_initializer": {"class_name": "Ones", "config": {}}, "beta_initializer": {"class_name": "Zeros", "config": {}}, "scale": true, "axis": -1, "gamma_constraint": null, "gamma_regularizer": null, "beta_regularizer": null, "momentum": 0.9997, "center": true}, "inbound_nodes": [[["reduction_conv_1_stem_2", 0, 0, {}]]], "name": "reduction_bn_1_stem_2"}, {"class_name": "BatchNormalization", "config": {"beta_constraint": null, "gamma_initializer": {"class_name": "Ones", "config": {}}, "moving_mean_initializer": {"class_name": "Zeros", "config": {}}, "name": "adjust_bn_stem_2", "epsilon": 0.001, "trainable": true, "moving_variance_initializer": {"class_name": "Ones", "config": {}}, "beta_initializer": {"class_name": "Zeros", "config": {}}, "scale": true, "axis": -1, "gamma_constraint": null, "gamma_regularizer": null, "beta_regularizer": null, "momentum": 0.9997, "center": true}, "inbound_nodes": [[["concatenate_1", 0, 0, {}]]], "name": "adjust_bn_stem_2"}, {"class_name": "Activation", "config": {"activation": "relu", "trainable": true, "name": "activation_13"}, "inbound_nodes": [[["reduction_bn_1_stem_2", 0, 0, {}]]], "name": "activation_13"}, {"class_name": "Activation", "config": {"activation": "relu", "trainable": true, "name": "activation_15"}, "inbound_nodes": [[["adjust_bn_stem_2", 0, 0, {}]]], "name": "activation_15"}, {"class_name": "SeparableConv2D", "config": {"padding": "same", "use_bias": false, "bias_regularizer": null, "pointwise_initializer": {"class_name": "VarianceScaling", "config": {"distribution": "uniform", "scale": 1.0, "seed": null, "mode": "fan_avg"}}, "bias_constraint": null, "activity_regularizer": null, "trainable": true, "pointwise_constraint": null, "data_format": "channels_last", "depthwise_initializer": {"class_name": "VarianceScaling", "config": {"distribution": "uniform", "scale": 1.0, "seed": null, "mode": "fan_avg"}}, "depthwise_constraint": null, "strides": [2, 2], "pointwise_regularizer": null, "filters": 22, "bias_initializer": {"class_name": "Zeros", "config": {}}, "depth_multiplier": 1, "dilation_rate": [1, 1], "depthwise_regularizer": null, "activation": "linear", "kernel_size": [5, 5], "name": "separable_conv_1_reduction_left1_stem_2"}, "inbound_nodes": [[["activation_13", 0, 0, {}]]], "name": "separable_conv_1_reduction_left1_stem_2"}, {"class_name": "SeparableConv2D", "config": {"padding": "same", "use_bias": false, "bias_regularizer": null, "pointwise_initializer": {"class_name": "VarianceScaling", "config": {"distribution": "uniform", "scale": 1.0, "seed": null, "mode": "fan_avg"}}, "bias_constraint": null, "activity_regularizer": null, "trainable": true, "pointwise_constraint": null, "data_format": "channels_last", "depthwise_initializer": {"class_name": "VarianceScaling", "config": {"distribution": "uniform", "scale": 1.0, "seed": null, "mode": "fan_avg"}}, "depthwise_constraint": null, "strides": [2, 2], "pointwise_regularizer": null, "filters": 22, "bias_initializer": {"class_name": "Zeros", "config": {}}, "depth_multiplier": 1, "dilation_rate": [1, 1], "depthwise_regularizer": null, "activation": "linear", "kernel_size": [7, 7], "name": "separable_conv_1_reduction_right1_stem_2"}, "inbound_nodes": [[["activation_15", 0, 0, {}]]], "name": "separable_conv_1_reduction_right1_stem_2"}, {"class_name": "BatchNormalization", "config": {"beta_constraint": null, "gamma_initializer": {"class_name": "Ones", "config": {}}, "moving_mean_initializer": {"class_name": "Zeros", "config": {}}, "name": "separable_conv_1_bn_reduction_left1_stem_2", "epsilon": 0.001, "trainable": true, "moving_variance_initializer": {"class_name": "Ones", "config": {}}, "beta_initializer": {"class_name": "Zeros", "config": {}}, "scale": true, "axis": -1, "gamma_constraint": null, "gamma_regularizer": null, "beta_regularizer": null, "momentum": 0.9997, "center": true}, "inbound_nodes": [[["separable_conv_1_reduction_left1_stem_2", 0, 0, {}]]], "name": "separable_conv_1_bn_reduction_left1_stem_2"}, {"class_name": "BatchNormalization", "config": {"beta_constraint": null, "gamma_initializer": {"class_name": "Ones", "config": {}}, "moving_mean_initializer": {"class_name": "Zeros", "config": {}}, "name": "separable_conv_1_bn_reduction_right1_stem_2", "epsilon": 0.001, "trainable": true, "moving_variance_initializer": {"class_name": "Ones", "config": {}}, "beta_initializer": {"class_name": "Zeros", "config": {}}, "scale": true, "axis": -1, "gamma_constraint": null, "gamma_regularizer": null, "beta_regularizer": null, "momentum": 0.9997, "center": true}, "inbound_nodes": [[["separable_conv_1_reduction_right1_stem_2", 0, 0, {}]]], "name": "separable_conv_1_bn_reduction_right1_stem_2"}, {"class_name": "Activation", "config": {"activation": "relu", "trainable": true, "name": "activation_14"}, "inbound_nodes": [[["separable_conv_1_bn_reduction_left1_stem_2", 0, 0, {}]]], "name": "activation_14"}, {"class_name": "Activation", "config": {"activation": "relu", "trainable": true, "name": "activation_16"}, "inbound_nodes": [[["separable_conv_1_bn_reduction_right1_stem_2", 0, 0, {}]]], "name": "activation_16"}, {"class_name": "SeparableConv2D", "config": {"padding": "same", "use_bias": false, "bias_regularizer": null, "pointwise_initializer": {"class_name": "VarianceScaling", "config": {"distribution": "uniform", "scale": 1.0, "seed": null, "mode": "fan_avg"}}, "bias_constraint": null, "activity_regularizer": null, "trainable": true, "pointwise_constraint": null, "data_format": "channels_last", "depthwise_initializer": {"class_name": "VarianceScaling", "config": {"distribution": "uniform", "scale": 1.0, "seed": null, "mode": "fan_avg"}}, "depthwise_constraint": null, "strides": [1, 1], "pointwise_regularizer": null, "filters": 22, "bias_initializer": {"class_name": "Zeros", "config": {}}, "depth_multiplier": 1, "dilation_rate": [1, 1], "depthwise_regularizer": null, "activation": "linear", "kernel_size": [5, 5], "name": "separable_conv_2_reduction_left1_stem_2"}, "inbound_nodes": [[["activation_14", 0, 0, {}]]], "name": "separable_conv_2_reduction_left1_stem_2"}, {"class_name": "SeparableConv2D", "config": {"padding": "same", "use_bias": false, "bias_regularizer": null, "pointwise_initializer": {"class_name": "VarianceScaling", "config": {"distribution": "uniform", "scale": 1.0, "seed": null, "mode": "fan_avg"}}, "bias_constraint": null, "activity_regularizer": null, "trainable": true, "pointwise_constraint": null, "data_format": "channels_last", "depthwise_initializer": {"class_name": "VarianceScaling", "config": {"distribution": "uniform", "scale": 1.0, "seed": null, "mode": "fan_avg"}}, "depthwise_constraint": null, "strides": [1, 1], "pointwise_regularizer": null, "filters": 22, "bias_initializer": {"class_name": "Zeros", "config": {}}, "depth_multiplier": 1, "dilation_rate": [1, 1], "depthwise_regularizer": null, "activation": "linear", "kernel_size": [7, 7], "name": "separable_conv_2_reduction_right1_stem_2"}, "inbound_nodes": [[["activation_16", 0, 0, {}]]], "name": "separable_conv_2_reduction_right1_stem_2"}, {"class_name": "BatchNormalization", "config": {"beta_constraint": null, "gamma_initializer": {"class_name": "Ones", "config": {}}, "moving_mean_initializer": {"class_name": "Zeros", "config": {}}, "name": "separable_conv_2_bn_reduction_left1_stem_2", "epsilon": 0.001, "trainable": true, "moving_variance_initializer": {"class_name": "Ones", "config": {}}, "beta_initializer": {"class_name": "Zeros", "config": {}}, "scale": true, "axis": -1, "gamma_constraint": null, "gamma_regularizer": null, "beta_regularizer": null, "momentum": 0.9997, "center": true}, "inbound_nodes": [[["separable_conv_2_reduction_left1_stem_2", 0, 0, {}]]], "name": "separable_conv_2_bn_reduction_left1_stem_2"}, {"class_name": "BatchNormalization", "config": {"beta_constraint": null, "gamma_initializer": {"class_name": "Ones", "config": {}}, "moving_mean_initializer": {"class_name": "Zeros", "config": {}}, "name": "separable_conv_2_bn_reduction_right1_stem_2", "epsilon": 0.001, "trainable": true, "moving_variance_initializer": {"class_name": "Ones", "config": {}}, "beta_initializer": {"class_name": "Zeros", "config": {}}, "scale": true, "axis": -1, "gamma_constraint": null, "gamma_regularizer": null, "beta_regularizer": null, "momentum": 0.9997, "center": true}, "inbound_nodes": [[["separable_conv_2_reduction_right1_stem_2", 0, 0, {}]]], "name": "separable_conv_2_bn_reduction_right1_stem_2"}, {"class_name": "Activation", "config": {"activation": "relu", "trainable": true, "name": "activation_17"}, "inbound_nodes": [[["adjust_bn_stem_2", 0, 0, {}]]], "name": "activation_17"}, {"class_name": "Add", "config": {"trainable": true, "name": "reduction_add_1_stem_2"}, "inbound_nodes": [[["separable_conv_2_bn_reduction_left1_stem_2", 0, 0, {}], ["separable_conv_2_bn_reduction_right1_stem_2", 0, 0, {}]]], "name": "reduction_add_1_stem_2"}, {"class_name": "SeparableConv2D", "config": {"padding": "same", "use_bias": false, "bias_regularizer": null, "pointwise_initializer": {"class_name": "VarianceScaling", "config": {"distribution": "uniform", "scale": 1.0, "seed": null, "mode": "fan_avg"}}, "bias_constraint": null, "activity_regularizer": null, "trainable": true, "pointwise_constraint": null, "data_format": "channels_last", "depthwise_initializer": {"class_name": "VarianceScaling", "config": {"distribution": "uniform", "scale": 1.0, "seed": null, "mode": "fan_avg"}}, "depthwise_constraint": null, "strides": [2, 2], "pointwise_regularizer": null, "filters": 22, "bias_initializer": {"class_name": "Zeros", "config": {}}, "depth_multiplier": 1, "dilation_rate": [1, 1], "depthwise_regularizer": null, "activation": "linear", "kernel_size": [7, 7], "name": "separable_conv_1_reduction_right2_stem_2"}, "inbound_nodes": [[["activation_17", 0, 0, {}]]], "name": "separable_conv_1_reduction_right2_stem_2"}, {"class_name": "Activation", "config": {"activation": "relu", "trainable": true, "name": "activation_19"}, "inbound_nodes": [[["adjust_bn_stem_2", 0, 0, {}]]], "name": "activation_19"}, {"class_name": "Activation", "config": {"activation": "relu", "trainable": true, "name": "activation_21"}, "inbound_nodes": [[["reduction_add_1_stem_2", 0, 0, {}]]], "name": "activation_21"}, {"class_name": "BatchNormalization", "config": {"beta_constraint": null, "gamma_initializer": {"class_name": "Ones", "config": {}}, "moving_mean_initializer": {"class_name": "Zeros", "config": {}}, "name": "separable_conv_1_bn_reduction_right2_stem_2", "epsilon": 0.001, "trainable": true, "moving_variance_initializer": {"class_name": "Ones", "config": {}}, "beta_initializer": {"class_name": "Zeros", "config": {}}, "scale": true, "axis": -1, "gamma_constraint": null, "gamma_regularizer": null, "beta_regularizer": null, "momentum": 0.9997, "center": true}, "inbound_nodes": [[["separable_conv_1_reduction_right2_stem_2", 0, 0, {}]]], "name": "separable_conv_1_bn_reduction_right2_stem_2"}, {"class_name": "SeparableConv2D", "config": {"padding": "same", "use_bias": false, "bias_regularizer": null, "pointwise_initializer": {"class_name": "VarianceScaling", "config": {"distribution": "uniform", "scale": 1.0, "seed": null, "mode": "fan_avg"}}, "bias_constraint": null, "activity_regularizer": null, "trainable": true, "pointwise_constraint": null, "data_format": "channels_last", "depthwise_initializer": {"class_name": "VarianceScaling", "config": {"distribution": "uniform", "scale": 1.0, "seed": null, "mode": "fan_avg"}}, "depthwise_constraint": null, "strides": [2, 2], "pointwise_regularizer": null, "filters": 22, "bias_initializer": {"class_name": "Zeros", "config": {}}, "depth_multiplier": 1, "dilation_rate": [1, 1], "depthwise_regularizer": null, "activation": "linear", "kernel_size": [5, 5], "name": "separable_conv_1_reduction_right3_stem_2"}, "inbound_nodes": [[["activation_19", 0, 0, {}]]], "name": "separable_conv_1_reduction_right3_stem_2"}, {"class_name": "SeparableConv2D", "config": {"padding": "same", "use_bias": false, "bias_regularizer": null, "pointwise_initializer": {"class_name": "VarianceScaling", "config": {"distribution": "uniform", "scale": 1.0, "seed": null, "mode": "fan_avg"}}, "bias_constraint": null, "activity_regularizer": null, "trainable": true, "pointwise_constraint": null, "data_format": "channels_last", "depthwise_initializer": {"class_name": "VarianceScaling", "config": {"distribution": "uniform", "scale": 1.0, "seed": null, "mode": "fan_avg"}}, "depthwise_constraint": null, "strides": [1, 1], "pointwise_regularizer": null, "filters": 22, "bias_initializer": {"class_name": "Zeros", "config": {}}, "depth_multiplier": 1, "dilation_rate": [1, 1], "depthwise_regularizer": null, "activation": "linear", "kernel_size": [3, 3], "name": "separable_conv_1_reduction_left4_stem_2"}, "inbound_nodes": [[["activation_21", 0, 0, {}]]], "name": "separable_conv_1_reduction_left4_stem_2"}, {"class_name": "Activation", "config": {"activation": "relu", "trainable": true, "name": "activation_18"}, "inbound_nodes": [[["separable_conv_1_bn_reduction_right2_stem_2", 0, 0, {}]]], "name": "activation_18"}, {"class_name": "BatchNormalization", "config": {"beta_constraint": null, "gamma_initializer": {"class_name": "Ones", "config": {}}, "moving_mean_initializer": {"class_name": "Zeros", "config": {}}, "name": "separable_conv_1_bn_reduction_right3_stem_2", "epsilon": 0.001, "trainable": true, "moving_variance_initializer": {"class_name": "Ones", "config": {}}, "beta_initializer": {"class_name": "Zeros", "config": {}}, "scale": true, "axis": -1, "gamma_constraint": null, "gamma_regularizer": null, "beta_regularizer": null, "momentum": 0.9997, "center": true}, "inbound_nodes": [[["separable_conv_1_reduction_right3_stem_2", 0, 0, {}]]], "name": "separable_conv_1_bn_reduction_right3_stem_2"}, {"class_name": "BatchNormalization", "config": {"beta_constraint": null, "gamma_initializer": {"class_name": "Ones", "config": {}}, "moving_mean_initializer": {"class_name": "Zeros", "config": {}}, "name": "separable_conv_1_bn_reduction_left4_stem_2", "epsilon": 0.001, "trainable": true, "moving_variance_initializer": {"class_name": "Ones", "config": {}}, "beta_initializer": {"class_name": "Zeros", "config": {}}, "scale": true, "axis": -1, "gamma_constraint": null, "gamma_regularizer": null, "beta_regularizer": null, "momentum": 0.9997, "center": true}, "inbound_nodes": [[["separable_conv_1_reduction_left4_stem_2", 0, 0, {}]]], "name": "separable_conv_1_bn_reduction_left4_stem_2"}, {"class_name": "SeparableConv2D", "config": {"padding": "same", "use_bias": false, "bias_regularizer": null, "pointwise_initializer": {"class_name": "VarianceScaling", "config": {"distribution": "uniform", "scale": 1.0, "seed": null, "mode": "fan_avg"}}, "bias_constraint": null, "activity_regularizer": null, "trainable": true, "pointwise_constraint": null, "data_format": "channels_last", "depthwise_initializer": {"class_name": "VarianceScaling", "config": {"distribution": "uniform", "scale": 1.0, "seed": null, "mode": "fan_avg"}}, "depthwise_constraint": null, "strides": [1, 1], "pointwise_regularizer": null, "filters": 22, "bias_initializer": {"class_name": "Zeros", "config": {}}, "depth_multiplier": 1, "dilation_rate": [1, 1], "depthwise_regularizer": null, "activation": "linear", "kernel_size": [7, 7], "name": "separable_conv_2_reduction_right2_stem_2"}, "inbound_nodes": [[["activation_18", 0, 0, {}]]], "name": "separable_conv_2_reduction_right2_stem_2"}, {"class_name": "Activation", "config": {"activation": "relu", "trainable": true, "name": "activation_20"}, "inbound_nodes": [[["separable_conv_1_bn_reduction_right3_stem_2", 0, 0, {}]]], "name": "activation_20"}, {"class_name": "Activation", "config": {"activation": "relu", "trainable": true, "name": "activation_22"}, "inbound_nodes": [[["separable_conv_1_bn_reduction_left4_stem_2", 0, 0, {}]]], "name": "activation_22"}, {"class_name": "MaxPooling2D", "config": {"name": "reduction_left2_stem_2", "trainable": true, "data_format": "channels_last", "pool_size": [3, 3], "padding": "same", "strides": [2, 2]}, "inbound_nodes": [[["reduction_bn_1_stem_2", 0, 0, {}]]], "name": "reduction_left2_stem_2"}, {"class_name": "BatchNormalization", "config": {"beta_constraint": null, "gamma_initializer": {"class_name": "Ones", "config": {}}, "moving_mean_initializer": {"class_name": "Zeros", "config": {}}, "name": "separable_conv_2_bn_reduction_right2_stem_2", "epsilon": 0.001, "trainable": true, "moving_variance_initializer": {"class_name": "Ones", "config": {}}, "beta_initializer": {"class_name": "Zeros", "config": {}}, "scale": true, "axis": -1, "gamma_constraint": null, "gamma_regularizer": null, "beta_regularizer": null, "momentum": 0.9997, "center": true}, "inbound_nodes": [[["separable_conv_2_reduction_right2_stem_2", 0, 0, {}]]], "name": "separable_conv_2_bn_reduction_right2_stem_2"}, {"class_name": "SeparableConv2D", "config": {"padding": "same", "use_bias": false, "bias_regularizer": null, "pointwise_initializer": {"class_name": "VarianceScaling", "config": {"distribution": "uniform", "scale": 1.0, "seed": null, "mode": "fan_avg"}}, "bias_constraint": null, "activity_regularizer": null, "trainable": true, "pointwise_constraint": null, "data_format": "channels_last", "depthwise_initializer": {"class_name": "VarianceScaling", "config": {"distribution": "uniform", "scale": 1.0, "seed": null, "mode": "fan_avg"}}, "depthwise_constraint": null, "strides": [1, 1], "pointwise_regularizer": null, "filters": 22, "bias_initializer": {"class_name": "Zeros", "config": {}}, "depth_multiplier": 1, "dilation_rate": [1, 1], "depthwise_regularizer": null, "activation": "linear", "kernel_size": [5, 5], "name": "separable_conv_2_reduction_right3_stem_2"}, "inbound_nodes": [[["activation_20", 0, 0, {}]]], "name": "separable_conv_2_reduction_right3_stem_2"}, {"class_name": "SeparableConv2D", "config": {"padding": "same", "use_bias": false, "bias_regularizer": null, "pointwise_initializer": {"class_name": "VarianceScaling", "config": {"distribution": "uniform", "scale": 1.0, "seed": null, "mode": "fan_avg"}}, "bias_constraint": null, "activity_regularizer": null, "trainable": true, "pointwise_constraint": null, "data_format": "channels_last", "depthwise_initializer": {"class_name": "VarianceScaling", "config": {"distribution": "uniform", "scale": 1.0, "seed": null, "mode": "fan_avg"}}, "depthwise_constraint": null, "strides": [1, 1], "pointwise_regularizer": null, "filters": 22, "bias_initializer": {"class_name": "Zeros", "config": {}}, "depth_multiplier": 1, "dilation_rate": [1, 1], "depthwise_regularizer": null, "activation": "linear", "kernel_size": [3, 3], "name": "separable_conv_2_reduction_left4_stem_2"}, "inbound_nodes": [[["activation_22", 0, 0, {}]]], "name": "separable_conv_2_reduction_left4_stem_2"}, {"class_name": "Activation", "config": {"activation": "relu", "trainable": true, "name": "adjust_relu_1_0"}, "inbound_nodes": [[["reduction_concat_stem_1", 0, 0, {}]]], "name": "adjust_relu_1_0"}, {"class_name": "Add", "config": {"trainable": true, "name": "reduction_add_2_stem_2"}, "inbound_nodes": [[["reduction_left2_stem_2", 0, 0, {}], ["separable_conv_2_bn_reduction_right2_stem_2", 0, 0, {}]]], "name": "reduction_add_2_stem_2"}, {"class_name": "AveragePooling2D", "config": {"name": "reduction_left3_stem_2", "trainable": true, "data_format": "channels_last", "pool_size": [3, 3], "padding": "same", "strides": [2, 2]}, "inbound_nodes": [[["reduction_bn_1_stem_2", 0, 0, {}]]], "name": "reduction_left3_stem_2"}, {"class_name": "BatchNormalization", "config": {"beta_constraint": null, "gamma_initializer": {"class_name": "Ones", "config": {}}, "moving_mean_initializer": {"class_name": "Zeros", "config": {}}, "name": "separable_conv_2_bn_reduction_right3_stem_2", "epsilon": 0.001, "trainable": true, "moving_variance_initializer": {"class_name": "Ones", "config": {}}, "beta_initializer": {"class_name": "Zeros", "config": {}}, "scale": true, "axis": -1, "gamma_constraint": null, "gamma_regularizer": null, "beta_regularizer": null, "momentum": 0.9997, "center": true}, "inbound_nodes": [[["separable_conv_2_reduction_right3_stem_2", 0, 0, {}]]], "name": "separable_conv_2_bn_reduction_right3_stem_2"}, {"class_name": "AveragePooling2D", "config": {"name": "reduction_left4_stem_2", "trainable": true, "data_format": "channels_last", "pool_size": [3, 3], "padding": "same", "strides": [1, 1]}, "inbound_nodes": [[["reduction_add_1_stem_2", 0, 0, {}]]], "name": "reduction_left4_stem_2"}, {"class_name": "BatchNormalization", "config": {"beta_constraint": null, "gamma_initializer": {"class_name": "Ones", "config": {}}, "moving_mean_initializer": {"class_name": "Zeros", "config": {}}, "name": "separable_conv_2_bn_reduction_left4_stem_2", "epsilon": 0.001, "trainable": true, "moving_variance_initializer": {"class_name": "Ones", "config": {}}, "beta_initializer": {"class_name": "Zeros", "config": {}}, "scale": true, "axis": -1, "gamma_constraint": null, "gamma_regularizer": null, "beta_regularizer": null, "momentum": 0.9997, "center": true}, "inbound_nodes": [[["separable_conv_2_reduction_left4_stem_2", 0, 0, {}]]], "name": "separable_conv_2_bn_reduction_left4_stem_2"}, {"class_name": "MaxPooling2D", "config": {"name": "reduction_right5_stem_2", "trainable": true, "data_format": "channels_last", "pool_size": [3, 3], "padding": "same", "strides": [2, 2]}, "inbound_nodes": [[["reduction_bn_1_stem_2", 0, 0, {}]]], "name": "reduction_right5_stem_2"}, {"class_name": "ZeroPadding2D", "config": {"padding": [[0, 1], [0, 1]], "trainable": true, "name": "zero_padding2d_2", "data_format": "channels_last"}, "inbound_nodes": [[["adjust_relu_1_0", 0, 0, {}]]], "name": "zero_padding2d_2"}, {"class_name": "Add", "config": {"trainable": true, "name": "reduction_add3_stem_2"}, "inbound_nodes": [[["reduction_left3_stem_2", 0, 0, {}], ["separable_conv_2_bn_reduction_right3_stem_2", 0, 0, {}]]], "name": "reduction_add3_stem_2"}, {"class_name": "Add", "config": {"trainable": true, "name": "add_2"}, "inbound_nodes": [[["reduction_add_2_stem_2", 0, 0, {}], ["reduction_left4_stem_2", 0, 0, {}]]], "name": "add_2"}, {"class_name": "Add", "config": {"trainable": true, "name": "reduction_add4_stem_2"}, "inbound_nodes": [[["separable_conv_2_bn_reduction_left4_stem_2", 0, 0, {}], ["reduction_right5_stem_2", 0, 0, {}]]], "name": "reduction_add4_stem_2"}, {"class_name": "Cropping2D", "config": {"cropping": [[1, 0], [1, 0]], "trainable": true, "name": "cropping2d_2", "data_format": "channels_last"}, "inbound_nodes": [[["zero_padding2d_2", 0, 0, {}]]], "name": "cropping2d_2"}, {"class_name": "Concatenate", "config": {"trainable": true, "name": "reduction_concat_stem_2", "axis": -1}, "inbound_nodes": [[["reduction_add_2_stem_2", 0, 0, {}], ["reduction_add3_stem_2", 0, 0, {}], ["add_2", 0, 0, {}], ["reduction_add4_stem_2", 0, 0, {}]]], "name": "reduction_concat_stem_2"}, {"class_name": "AveragePooling2D", "config": {"name": "adjust_avg_pool_1_0", "trainable": true, "data_format": "channels_last", "pool_size": [1, 1], "padding": "valid", "strides": [2, 2]}, "inbound_nodes": [[["adjust_relu_1_0", 0, 0, {}]]], "name": "adjust_avg_pool_1_0"}, {"class_name": "AveragePooling2D", "config": {"name": "adjust_avg_pool_2_0", "trainable": true, "data_format": "channels_last", "pool_size": [1, 1], "padding": "valid", "strides": [2, 2]}, "inbound_nodes": [[["cropping2d_2", 0, 0, {}]]], "name": "adjust_avg_pool_2_0"}, {"class_name": "Conv2D", "config": {"kernel_constraint": null, "kernel_initializer": {"class_name": "VarianceScaling", "config": {"distribution": "normal", "scale": 2.0, "seed": null, "mode": "fan_in"}}, "name": "adjust_conv_1_0", "bias_regularizer": null, "bias_constraint": null, "activation": "linear", "trainable": true, "data_format": "channels_last", "padding": "same", "strides": [1, 1], "dilation_rate": [1, 1], "kernel_regularizer": null, "filters": 22, "bias_initializer": {"class_name": "Zeros", "config": {}}, "use_bias": false, "activity_regularizer": null, "kernel_size": [1, 1]}, "inbound_nodes": [[["adjust_avg_pool_1_0", 0, 0, {}]]], "name": "adjust_conv_1_0"}, {"class_name": "Conv2D", "config": {"kernel_constraint": null, "kernel_initializer": {"class_name": "VarianceScaling", "config": {"distribution": "normal", "scale": 2.0, "seed": null, "mode": "fan_in"}}, "name": "adjust_conv_2_0", "bias_regularizer": null, "bias_constraint": null, "activation": "linear", "trainable": true, "data_format": "channels_last", "padding": "same", "strides": [1, 1], "dilation_rate": [1, 1], "kernel_regularizer": null, "filters": 22, "bias_initializer": {"class_name": "Zeros", "config": {}}, "use_bias": false, "activity_regularizer": null, "kernel_size": [1, 1]}, "inbound_nodes": [[["adjust_avg_pool_2_0", 0, 0, {}]]], "name": "adjust_conv_2_0"}, {"class_name": "Activation", "config": {"activation": "relu", "trainable": true, "name": "activation_23"}, "inbound_nodes": [[["reduction_concat_stem_2", 0, 0, {}]]], "name": "activation_23"}, {"class_name": "Concatenate", "config": {"trainable": true, "name": "concatenate_2", "axis": -1}, "inbound_nodes": [[["adjust_conv_1_0", 0, 0, {}], ["adjust_conv_2_0", 0, 0, {}]]], "name": "concatenate_2"}, {"class_name": "Conv2D", "config": {"kernel_constraint": null, "kernel_initializer": {"class_name": "VarianceScaling", "config": {"distribution": "normal", "scale": 2.0, "seed": null, "mode": "fan_in"}}, "name": "normal_conv_1_0", "bias_regularizer": null, "bias_constraint": null, "activation": "linear", "trainable": true, "data_format": "channels_last", "padding": "same", "strides": [1, 1], "dilation_rate": [1, 1], "kernel_regularizer": null, "filters": 44, "bias_initializer": {"class_name": "Zeros", "config": {}}, "use_bias": false, "activity_regularizer": null, "kernel_size": [1, 1]}, "inbound_nodes": [[["activation_23", 0, 0, {}]]], "name": "normal_conv_1_0"}, {"class_name": "BatchNormalization", "config": {"beta_constraint": null, "gamma_initializer": {"class_name": "Ones", "config": {}}, "moving_mean_initializer": {"class_name": "Zeros", "config": {}}, "name": "adjust_bn_0", "epsilon": 0.001, "trainable": true, "moving_variance_initializer": {"class_name": "Ones", "config": {}}, "beta_initializer": {"class_name": "Zeros", "config": {}}, "scale": true, "axis": -1, "gamma_constraint": null, "gamma_regularizer": null, "beta_regularizer": null, "momentum": 0.9997, "center": true}, "inbound_nodes": [[["concatenate_2", 0, 0, {}]]], "name": "adjust_bn_0"}, {"class_name": "BatchNormalization", "config": {"beta_constraint": null, "gamma_initializer": {"class_name": "Ones", "config": {}}, "moving_mean_initializer": {"class_name": "Zeros", "config": {}}, "name": "normal_bn_1_0", "epsilon": 0.001, "trainable": true, "moving_variance_initializer": {"class_name": "Ones", "config": {}}, "beta_initializer": {"class_name": "Zeros", "config": {}}, "scale": true, "axis": -1, "gamma_constraint": null, "gamma_regularizer": null, "beta_regularizer": null, "momentum": 0.9997, "center": true}, "inbound_nodes": [[["normal_conv_1_0", 0, 0, {}]]], "name": "normal_bn_1_0"}, {"class_name": "Activation", "config": {"activation": "relu", "trainable": true, "name": "activation_24"}, "inbound_nodes": [[["normal_bn_1_0", 0, 0, {}]]], "name": "activation_24"}, {"class_name": "Activation", "config": {"activation": "relu", "trainable": true, "name": "activation_26"}, "inbound_nodes": [[["adjust_bn_0", 0, 0, {}]]], "name": "activation_26"}, {"class_name": "Activation", "config": {"activation": "relu", "trainable": true, "name": "activation_28"}, "inbound_nodes": [[["adjust_bn_0", 0, 0, {}]]], "name": "activation_28"}, {"class_name": "Activation", "config": {"activation": "relu", "trainable": true, "name": "activation_30"}, "inbound_nodes": [[["adjust_bn_0", 0, 0, {}]]], "name": "activation_30"}, {"class_name": "Activation", "config": {"activation": "relu", "trainable": true, "name": "activation_32"}, "inbound_nodes": [[["normal_bn_1_0", 0, 0, {}]]], "name": "activation_32"}, {"class_name": "SeparableConv2D", "config": {"padding": "same", "use_bias": false, "bias_regularizer": null, "pointwise_initializer": {"class_name": "VarianceScaling", "config": {"distribution": "uniform", "scale": 1.0, "seed": null, "mode": "fan_avg"}}, "bias_constraint": null, "activity_regularizer": null, "trainable": true, "pointwise_constraint": null, "data_format": "channels_last", "depthwise_initializer": {"class_name": "VarianceScaling", "config": {"distribution": "uniform", "scale": 1.0, "seed": null, "mode": "fan_avg"}}, "depthwise_constraint": null, "strides": [1, 1], "pointwise_regularizer": null, "filters": 44, "bias_initializer": {"class_name": "Zeros", "config": {}}, "depth_multiplier": 1, "dilation_rate": [1, 1], "depthwise_regularizer": null, "activation": "linear", "kernel_size": [5, 5], "name": "separable_conv_1_normal_left1_0"}, "inbound_nodes": [[["activation_24", 0, 0, {}]]], "name": "separable_conv_1_normal_left1_0"}, {"class_name": "SeparableConv2D", "config": {"padding": "same", "use_bias": false, "bias_regularizer": null, "pointwise_initializer": {"class_name": "VarianceScaling", "config": {"distribution": "uniform", "scale": 1.0, "seed": null, "mode": "fan_avg"}}, "bias_constraint": null, "activity_regularizer": null, "trainable": true, "pointwise_constraint": null, "data_format": "channels_last", "depthwise_initializer": {"class_name": "VarianceScaling", "config": {"distribution": "uniform", "scale": 1.0, "seed": null, "mode": "fan_avg"}}, "depthwise_constraint": null, "strides": [1, 1], "pointwise_regularizer": null, "filters": 44, "bias_initializer": {"class_name": "Zeros", "config": {}}, "depth_multiplier": 1, "dilation_rate": [1, 1], "depthwise_regularizer": null, "activation": "linear", "kernel_size": [3, 3], "name": "separable_conv_1_normal_right1_0"}, "inbound_nodes": [[["activation_26", 0, 0, {}]]], "name": "separable_conv_1_normal_right1_0"}, {"class_name": "SeparableConv2D", "config": {"padding": "same", "use_bias": false, "bias_regularizer": null, "pointwise_initializer": {"class_name": "VarianceScaling", "config": {"distribution": "uniform", "scale": 1.0, "seed": null, "mode": "fan_avg"}}, "bias_constraint": null, "activity_regularizer": null, "trainable": true, "pointwise_constraint": null, "data_format": "channels_last", "depthwise_initializer": {"class_name": "VarianceScaling", "config": {"distribution": "uniform", "scale": 1.0, "seed": null, "mode": "fan_avg"}}, "depthwise_constraint": null, "strides": [1, 1], "pointwise_regularizer": null, "filters": 44, "bias_initializer": {"class_name": "Zeros", "config": {}}, "depth_multiplier": 1, "dilation_rate": [1, 1], "depthwise_regularizer": null, "activation": "linear", "kernel_size": [5, 5], "name": "separable_conv_1_normal_left2_0"}, "inbound_nodes": [[["activation_28", 0, 0, {}]]], "name": "separable_conv_1_normal_left2_0"}, {"class_name": "SeparableConv2D", "config": {"padding": "same", "use_bias": false, "bias_regularizer": null, "pointwise_initializer": {"class_name": "VarianceScaling", "config": {"distribution": "uniform", "scale": 1.0, "seed": null, "mode": "fan_avg"}}, "bias_constraint": null, "activity_regularizer": null, "trainable": true, "pointwise_constraint": null, "data_format": "channels_last", "depthwise_initializer": {"class_name": "VarianceScaling", "config": {"distribution": "uniform", "scale": 1.0, "seed": null, "mode": "fan_avg"}}, "depthwise_constraint": null, "strides": [1, 1], "pointwise_regularizer": null, "filters": 44, "bias_initializer": {"class_name": "Zeros", "config": {}}, "depth_multiplier": 1, "dilation_rate": [1, 1], "depthwise_regularizer": null, "activation": "linear", "kernel_size": [3, 3], "name": "separable_conv_1_normal_right2_0"}, "inbound_nodes": [[["activation_30", 0, 0, {}]]], "name": "separable_conv_1_normal_right2_0"}, {"class_name": "SeparableConv2D", "config": {"padding": "same", "use_bias": false, "bias_regularizer": null, "pointwise_initializer": {"class_name": "VarianceScaling", "config": {"distribution": "uniform", "scale": 1.0, "seed": null, "mode": "fan_avg"}}, "bias_constraint": null, "activity_regularizer": null, "trainable": true, "pointwise_constraint": null, "data_format": "channels_last", "depthwise_initializer": {"class_name": "VarianceScaling", "config": {"distribution": "uniform", "scale": 1.0, "seed": null, "mode": "fan_avg"}}, "depthwise_constraint": null, "strides": [1, 1], "pointwise_regularizer": null, "filters": 44, "bias_initializer": {"class_name": "Zeros", "config": {}}, "depth_multiplier": 1, "dilation_rate": [1, 1], "depthwise_regularizer": null, "activation": "linear", "kernel_size": [3, 3], "name": "separable_conv_1_normal_left5_0"}, "inbound_nodes": [[["activation_32", 0, 0, {}]]], "name": "separable_conv_1_normal_left5_0"}, {"class_name": "BatchNormalization", "config": {"beta_constraint": null, "gamma_initializer": {"class_name": "Ones", "config": {}}, "moving_mean_initializer": {"class_name": "Zeros", "config": {}}, "name": "separable_conv_1_bn_normal_left1_0", "epsilon": 0.001, "trainable": true, "moving_variance_initializer": {"class_name": "Ones", "config": {}}, "beta_initializer": {"class_name": "Zeros", "config": {}}, "scale": true, "axis": -1, "gamma_constraint": null, "gamma_regularizer": null, "beta_regularizer": null, "momentum": 0.9997, "center": true}, "inbound_nodes": [[["separable_conv_1_normal_left1_0", 0, 0, {}]]], "name": "separable_conv_1_bn_normal_left1_0"}, {"class_name": "BatchNormalization", "config": {"beta_constraint": null, "gamma_initializer": {"class_name": "Ones", "config": {}}, "moving_mean_initializer": {"class_name": "Zeros", "config": {}}, "name": "separable_conv_1_bn_normal_right1_0", "epsilon": 0.001, "trainable": true, "moving_variance_initializer": {"class_name": "Ones", "config": {}}, "beta_initializer": {"class_name": "Zeros", "config": {}}, "scale": true, "axis": -1, "gamma_constraint": null, "gamma_regularizer": null, "beta_regularizer": null, "momentum": 0.9997, "center": true}, "inbound_nodes": [[["separable_conv_1_normal_right1_0", 0, 0, {}]]], "name": "separable_conv_1_bn_normal_right1_0"}, {"class_name": "BatchNormalization", "config": {"beta_constraint": null, "gamma_initializer": {"class_name": "Ones", "config": {}}, "moving_mean_initializer": {"class_name": "Zeros", "config": {}}, "name": "separable_conv_1_bn_normal_left2_0", "epsilon": 0.001, "trainable": true, "moving_variance_initializer": {"class_name": "Ones", "config": {}}, "beta_initializer": {"class_name": "Zeros", "config": {}}, "scale": true, "axis": -1, "gamma_constraint": null, "gamma_regularizer": null, "beta_regularizer": null, "momentum": 0.9997, "center": true}, "inbound_nodes": [[["separable_conv_1_normal_left2_0", 0, 0, {}]]], "name": "separable_conv_1_bn_normal_left2_0"}, {"class_name": "BatchNormalization", "config": {"beta_constraint": null, "gamma_initializer": {"class_name": "Ones", "config": {}}, "moving_mean_initializer": {"class_name": "Zeros", "config": {}}, "name": "separable_conv_1_bn_normal_right2_0", "epsilon": 0.001, "trainable": true, "moving_variance_initializer": {"class_name": "Ones", "config": {}}, "beta_initializer": {"class_name": "Zeros", "config": {}}, "scale": true, "axis": -1, "gamma_constraint": null, "gamma_regularizer": null, "beta_regularizer": null, "momentum": 0.9997, "center": true}, "inbound_nodes": [[["separable_conv_1_normal_right2_0", 0, 0, {}]]], "name": "separable_conv_1_bn_normal_right2_0"}, {"class_name": "BatchNormalization", "config": {"beta_constraint": null, "gamma_initializer": {"class_name": "Ones", "config": {}}, "moving_mean_initializer": {"class_name": "Zeros", "config": {}}, "name": "separable_conv_1_bn_normal_left5_0", "epsilon": 0.001, "trainable": true, "moving_variance_initializer": {"class_name": "Ones", "config": {}}, "beta_initializer": {"class_name": "Zeros", "config": {}}, "scale": true, "axis": -1, "gamma_constraint": null, "gamma_regularizer": null, "beta_regularizer": null, "momentum": 0.9997, "center": true}, "inbound_nodes": [[["separable_conv_1_normal_left5_0", 0, 0, {}]]], "name": "separable_conv_1_bn_normal_left5_0"}, {"class_name": "Activation", "config": {"activation": "relu", "trainable": true, "name": "activation_25"}, "inbound_nodes": [[["separable_conv_1_bn_normal_left1_0", 0, 0, {}]]], "name": "activation_25"}, {"class_name": "Activation", "config": {"activation": "relu", "trainable": true, "name": "activation_27"}, "inbound_nodes": [[["separable_conv_1_bn_normal_right1_0", 0, 0, {}]]], "name": "activation_27"}, {"class_name": "Activation", "config": {"activation": "relu", "trainable": true, "name": "activation_29"}, "inbound_nodes": [[["separable_conv_1_bn_normal_left2_0", 0, 0, {}]]], "name": "activation_29"}, {"class_name": "Activation", "config": {"activation": "relu", "trainable": true, "name": "activation_31"}, "inbound_nodes": [[["separable_conv_1_bn_normal_right2_0", 0, 0, {}]]], "name": "activation_31"}, {"class_name": "Activation", "config": {"activation": "relu", "trainable": true, "name": "activation_33"}, "inbound_nodes": [[["separable_conv_1_bn_normal_left5_0", 0, 0, {}]]], "name": "activation_33"}, {"class_name": "SeparableConv2D", "config": {"padding": "same", "use_bias": false, "bias_regularizer": null, "pointwise_initializer": {"class_name": "VarianceScaling", "config": {"distribution": "uniform", "scale": 1.0, "seed": null, "mode": "fan_avg"}}, "bias_constraint": null, "activity_regularizer": null, "trainable": true, "pointwise_constraint": null, "data_format": "channels_last", "depthwise_initializer": {"class_name": "VarianceScaling", "config": {"distribution": "uniform", "scale": 1.0, "seed": null, "mode": "fan_avg"}}, "depthwise_constraint": null, "strides": [1, 1], "pointwise_regularizer": null, "filters": 44, "bias_initializer": {"class_name": "Zeros", "config": {}}, "depth_multiplier": 1, "dilation_rate": [1, 1], "depthwise_regularizer": null, "activation": "linear", "kernel_size": [5, 5], "name": "separable_conv_2_normal_left1_0"}, "inbound_nodes": [[["activation_25", 0, 0, {}]]], "name": "separable_conv_2_normal_left1_0"}, {"class_name": "SeparableConv2D", "config": {"padding": "same", "use_bias": false, "bias_regularizer": null, "pointwise_initializer": {"class_name": "VarianceScaling", "config": {"distribution": "uniform", "scale": 1.0, "seed": null, "mode": "fan_avg"}}, "bias_constraint": null, "activity_regularizer": null, "trainable": true, "pointwise_constraint": null, "data_format": "channels_last", "depthwise_initializer": {"class_name": "VarianceScaling", "config": {"distribution": "uniform", "scale": 1.0, "seed": null, "mode": "fan_avg"}}, "depthwise_constraint": null, "strides": [1, 1], "pointwise_regularizer": null, "filters": 44, "bias_initializer": {"class_name": "Zeros", "config": {}}, "depth_multiplier": 1, "dilation_rate": [1, 1], "depthwise_regularizer": null, "activation": "linear", "kernel_size": [3, 3], "name": "separable_conv_2_normal_right1_0"}, "inbound_nodes": [[["activation_27", 0, 0, {}]]], "name": "separable_conv_2_normal_right1_0"}, {"class_name": "SeparableConv2D", "config": {"padding": "same", "use_bias": false, "bias_regularizer": null, "pointwise_initializer": {"class_name": "VarianceScaling", "config": {"distribution": "uniform", "scale": 1.0, "seed": null, "mode": "fan_avg"}}, "bias_constraint": null, "activity_regularizer": null, "trainable": true, "pointwise_constraint": null, "data_format": "channels_last", "depthwise_initializer": {"class_name": "VarianceScaling", "config": {"distribution": "uniform", "scale": 1.0, "seed": null, "mode": "fan_avg"}}, "depthwise_constraint": null, "strides": [1, 1], "pointwise_regularizer": null, "filters": 44, "bias_initializer": {"class_name": "Zeros", "config": {}}, "depth_multiplier": 1, "dilation_rate": [1, 1], "depthwise_regularizer": null, "activation": "linear", "kernel_size": [5, 5], "name": "separable_conv_2_normal_left2_0"}, "inbound_nodes": [[["activation_29", 0, 0, {}]]], "name": "separable_conv_2_normal_left2_0"}, {"class_name": "SeparableConv2D", "config": {"padding": "same", "use_bias": false, "bias_regularizer": null, "pointwise_initializer": {"class_name": "VarianceScaling", "config": {"distribution": "uniform", "scale": 1.0, "seed": null, "mode": "fan_avg"}}, "bias_constraint": null, "activity_regularizer": null, "trainable": true, "pointwise_constraint": null, "data_format": "channels_last", "depthwise_initializer": {"class_name": "VarianceScaling", "config": {"distribution": "uniform", "scale": 1.0, "seed": null, "mode": "fan_avg"}}, "depthwise_constraint": null, "strides": [1, 1], "pointwise_regularizer": null, "filters": 44, "bias_initializer": {"class_name": "Zeros", "config": {}}, "depth_multiplier": 1, "dilation_rate": [1, 1], "depthwise_regularizer": null, "activation": "linear", "kernel_size": [3, 3], "name": "separable_conv_2_normal_right2_0"}, "inbound_nodes": [[["activation_31", 0, 0, {}]]], "name": "separable_conv_2_normal_right2_0"}, {"class_name": "SeparableConv2D", "config": {"padding": "same", "use_bias": false, "bias_regularizer": null, "pointwise_initializer": {"class_name": "VarianceScaling", "config": {"distribution": "uniform", "scale": 1.0, "seed": null, "mode": "fan_avg"}}, "bias_constraint": null, "activity_regularizer": null, "trainable": true, "pointwise_constraint": null, "data_format": "channels_last", "depthwise_initializer": {"class_name": "VarianceScaling", "config": {"distribution": "uniform", "scale": 1.0, "seed": null, "mode": "fan_avg"}}, "depthwise_constraint": null, "strides": [1, 1], "pointwise_regularizer": null, "filters": 44, "bias_initializer": {"class_name": "Zeros", "config": {}}, "depth_multiplier": 1, "dilation_rate": [1, 1], "depthwise_regularizer": null, "activation": "linear", "kernel_size": [3, 3], "name": "separable_conv_2_normal_left5_0"}, "inbound_nodes": [[["activation_33", 0, 0, {}]]], "name": "separable_conv_2_normal_left5_0"}, {"class_name": "BatchNormalization", "config": {"beta_constraint": null, "gamma_initializer": {"class_name": "Ones", "config": {}}, "moving_mean_initializer": {"class_name": "Zeros", "config": {}}, "name": "separable_conv_2_bn_normal_left1_0", "epsilon": 0.001, "trainable": true, "moving_variance_initializer": {"class_name": "Ones", "config": {}}, "beta_initializer": {"class_name": "Zeros", "config": {}}, "scale": true, "axis": -1, "gamma_constraint": null, "gamma_regularizer": null, "beta_regularizer": null, "momentum": 0.9997, "center": true}, "inbound_nodes": [[["separable_conv_2_normal_left1_0", 0, 0, {}]]], "name": "separable_conv_2_bn_normal_left1_0"}, {"class_name": "BatchNormalization", "config": {"beta_constraint": null, "gamma_initializer": {"class_name": "Ones", "config": {}}, "moving_mean_initializer": {"class_name": "Zeros", "config": {}}, "name": "separable_conv_2_bn_normal_right1_0", "epsilon": 0.001, "trainable": true, "moving_variance_initializer": {"class_name": "Ones", "config": {}}, "beta_initializer": {"class_name": "Zeros", "config": {}}, "scale": true, "axis": -1, "gamma_constraint": null, "gamma_regularizer": null, "beta_regularizer": null, "momentum": 0.9997, "center": true}, "inbound_nodes": [[["separable_conv_2_normal_right1_0", 0, 0, {}]]], "name": "separable_conv_2_bn_normal_right1_0"}, {"class_name": "BatchNormalization", "config": {"beta_constraint": null, "gamma_initializer": {"class_name": "Ones", "config": {}}, "moving_mean_initializer": {"class_name": "Zeros", "config": {}}, "name": "separable_conv_2_bn_normal_left2_0", "epsilon": 0.001, "trainable": true, "moving_variance_initializer": {"class_name": "Ones", "config": {}}, "beta_initializer": {"class_name": "Zeros", "config": {}}, "scale": true, "axis": -1, "gamma_constraint": null, "gamma_regularizer": null, "beta_regularizer": null, "momentum": 0.9997, "center": true}, "inbound_nodes": [[["separable_conv_2_normal_left2_0", 0, 0, {}]]], "name": "separable_conv_2_bn_normal_left2_0"}, {"class_name": "BatchNormalization", "config": {"beta_constraint": null, "gamma_initializer": {"class_name": "Ones", "config": {}}, "moving_mean_initializer": {"class_name": "Zeros", "config": {}}, "name": "separable_conv_2_bn_normal_right2_0", "epsilon": 0.001, "trainable": true, "moving_variance_initializer": {"class_name": "Ones", "config": {}}, "beta_initializer": {"class_name": "Zeros", "config": {}}, "scale": true, "axis": -1, "gamma_constraint": null, "gamma_regularizer": null, "beta_regularizer": null, "momentum": 0.9997, "center": true}, "inbound_nodes": [[["separable_conv_2_normal_right2_0", 0, 0, {}]]], "name": "separable_conv_2_bn_normal_right2_0"}, {"class_name": "AveragePooling2D", "config": {"name": "normal_left3_0", "trainable": true, "data_format": "channels_last", "pool_size": [3, 3], "padding": "same", "strides": [1, 1]}, "inbound_nodes": [[["normal_bn_1_0", 0, 0, {}]]], "name": "normal_left3_0"}, {"class_name": "AveragePooling2D", "config": {"name": "normal_left4_0", "trainable": true, "data_format": "channels_last", "pool_size": [3, 3], "padding": "same", "strides": [1, 1]}, "inbound_nodes": [[["adjust_bn_0", 0, 0, {}]]], "name": "normal_left4_0"}, {"class_name": "AveragePooling2D", "config": {"name": "normal_right4_0", "trainable": true, "data_format": "channels_last", "pool_size": [3, 3], "padding": "same", "strides": [1, 1]}, "inbound_nodes": [[["adjust_bn_0", 0, 0, {}]]], "name": "normal_right4_0"}, {"class_name": "BatchNormalization", "config": {"beta_constraint": null, "gamma_initializer": {"class_name": "Ones", "config": {}}, "moving_mean_initializer": {"class_name": "Zeros", "config": {}}, "name": "separable_conv_2_bn_normal_left5_0", "epsilon": 0.001, "trainable": true, "moving_variance_initializer": {"class_name": "Ones", "config": {}}, "beta_initializer": {"class_name": "Zeros", "config": {}}, "scale": true, "axis": -1, "gamma_constraint": null, "gamma_regularizer": null, "beta_regularizer": null, "momentum": 0.9997, "center": true}, "inbound_nodes": [[["separable_conv_2_normal_left5_0", 0, 0, {}]]], "name": "separable_conv_2_bn_normal_left5_0"}, {"class_name": "Add", "config": {"trainable": true, "name": "normal_add_1_0"}, "inbound_nodes": [[["separable_conv_2_bn_normal_left1_0", 0, 0, {}], ["separable_conv_2_bn_normal_right1_0", 0, 0, {}]]], "name": "normal_add_1_0"}, {"class_name": "Add", "config": {"trainable": true, "name": "normal_add_2_0"}, "inbound_nodes": [[["separable_conv_2_bn_normal_left2_0", 0, 0, {}], ["separable_conv_2_bn_normal_right2_0", 0, 0, {}]]], "name": "normal_add_2_0"}, {"class_name": "Add", "config": {"trainable": true, "name": "normal_add_3_0"}, "inbound_nodes": [[["normal_left3_0", 0, 0, {}], ["adjust_bn_0", 0, 0, {}]]], "name": "normal_add_3_0"}, {"class_name": "Add", "config": {"trainable": true, "name": "normal_add_4_0"}, "inbound_nodes": [[["normal_left4_0", 0, 0, {}], ["normal_right4_0", 0, 0, {}]]], "name": "normal_add_4_0"}, {"class_name": "Add", "config": {"trainable": true, "name": "normal_add_5_0"}, "inbound_nodes": [[["separable_conv_2_bn_normal_left5_0", 0, 0, {}], ["normal_bn_1_0", 0, 0, {}]]], "name": "normal_add_5_0"}, {"class_name": "Concatenate", "config": {"trainable": true, "name": "normal_concat_0", "axis": -1}, "inbound_nodes": [[["adjust_bn_0", 0, 0, {}], ["normal_add_1_0", 0, 0, {}], ["normal_add_2_0", 0, 0, {}], ["normal_add_3_0", 0, 0, {}], ["normal_add_4_0", 0, 0, {}], ["normal_add_5_0", 0, 0, {}]]], "name": "normal_concat_0"}, {"class_name": "Activation", "config": {"activation": "relu", "trainable": true, "name": "activation_34"}, "inbound_nodes": [[["reduction_concat_stem_2", 0, 0, {}]]], "name": "activation_34"}, {"class_name": "Activation", "config": {"activation": "relu", "trainable": true, "name": "activation_35"}, "inbound_nodes": [[["normal_concat_0", 0, 0, {}]]], "name": "activation_35"}, {"class_name": "Conv2D", "config": {"kernel_constraint": null, "kernel_initializer": {"class_name": "VarianceScaling", "config": {"distribution": "normal", "scale": 2.0, "seed": null, "mode": "fan_in"}}, "name": "adjust_conv_projection_1", "bias_regularizer": null, "bias_constraint": null, "activation": "linear", "trainable": true, "data_format": "channels_last", "padding": "same", "strides": [1, 1], "dilation_rate": [1, 1], "kernel_regularizer": null, "filters": 44, "bias_initializer": {"class_name": "Zeros", "config": {}}, "use_bias": false, "activity_regularizer": null, "kernel_size": [1, 1]}, "inbound_nodes": [[["activation_34", 0, 0, {}]]], "name": "adjust_conv_projection_1"}, {"class_name": "Conv2D", "config": {"kernel_constraint": null, "kernel_initializer": {"class_name": "VarianceScaling", "config": {"distribution": "normal", "scale": 2.0, "seed": null, "mode": "fan_in"}}, "name": "normal_conv_1_1", "bias_regularizer": null, "bias_constraint": null, "activation": "linear", "trainable": true, "data_format": "channels_last", "padding": "same", "strides": [1, 1], "dilation_rate": [1, 1], "kernel_regularizer": null, "filters": 44, "bias_initializer": {"class_name": "Zeros", "config": {}}, "use_bias": false, "activity_regularizer": null, "kernel_size": [1, 1]}, "inbound_nodes": [[["activation_35", 0, 0, {}]]], "name": "normal_conv_1_1"}, {"class_name": "BatchNormalization", "config": {"beta_constraint": null, "gamma_initializer": {"class_name": "Ones", "config": {}}, "moving_mean_initializer": {"class_name": "Zeros", "config": {}}, "name": "adjust_bn_1", "epsilon": 0.001, "trainable": true, "moving_variance_initializer": {"class_name": "Ones", "config": {}}, "beta_initializer": {"class_name": "Zeros", "config": {}}, "scale": true, "axis": -1, "gamma_constraint": null, "gamma_regularizer": null, "beta_regularizer": null, "momentum": 0.9997, "center": true}, "inbound_nodes": [[["adjust_conv_projection_1", 0, 0, {}]]], "name": "adjust_bn_1"}, {"class_name": "BatchNormalization", "config": {"beta_constraint": null, "gamma_initializer": {"class_name": "Ones", "config": {}}, "moving_mean_initializer": {"class_name": "Zeros", "config": {}}, "name": "normal_bn_1_1", "epsilon": 0.001, "trainable": true, "moving_variance_initializer": {"class_name": "Ones", "config": {}}, "beta_initializer": {"class_name": "Zeros", "config": {}}, "scale": true, "axis": -1, "gamma_constraint": null, "gamma_regularizer": null, "beta_regularizer": null, "momentum": 0.9997, "center": true}, "inbound_nodes": [[["normal_conv_1_1", 0, 0, {}]]], "name": "normal_bn_1_1"}, {"class_name": "Activation", "config": {"activation": "relu", "trainable": true, "name": "activation_36"}, "inbound_nodes": [[["normal_bn_1_1", 0, 0, {}]]], "name": "activation_36"}, {"class_name": "Activation", "config": {"activation": "relu", "trainable": true, "name": "activation_38"}, "inbound_nodes": [[["adjust_bn_1", 0, 0, {}]]], "name": "activation_38"}, {"class_name": "Activation", "config": {"activation": "relu", "trainable": true, "name": "activation_40"}, "inbound_nodes": [[["adjust_bn_1", 0, 0, {}]]], "name": "activation_40"}, {"class_name": "Activation", "config": {"activation": "relu", "trainable": true, "name": "activation_42"}, "inbound_nodes": [[["adjust_bn_1", 0, 0, {}]]], "name": "activation_42"}, {"class_name": "Activation", "config": {"activation": "relu", "trainable": true, "name": "activation_44"}, "inbound_nodes": [[["normal_bn_1_1", 0, 0, {}]]], "name": "activation_44"}, {"class_name": "SeparableConv2D", "config": {"padding": "same", "use_bias": false, "bias_regularizer": null, "pointwise_initializer": {"class_name": "VarianceScaling", "config": {"distribution": "uniform", "scale": 1.0, "seed": null, "mode": "fan_avg"}}, "bias_constraint": null, "activity_regularizer": null, "trainable": true, "pointwise_constraint": null, "data_format": "channels_last", "depthwise_initializer": {"class_name": "VarianceScaling", "config": {"distribution": "uniform", "scale": 1.0, "seed": null, "mode": "fan_avg"}}, "depthwise_constraint": null, "strides": [1, 1], "pointwise_regularizer": null, "filters": 44, "bias_initializer": {"class_name": "Zeros", "config": {}}, "depth_multiplier": 1, "dilation_rate": [1, 1], "depthwise_regularizer": null, "activation": "linear", "kernel_size": [5, 5], "name": "separable_conv_1_normal_left1_1"}, "inbound_nodes": [[["activation_36", 0, 0, {}]]], "name": "separable_conv_1_normal_left1_1"}, {"class_name": "SeparableConv2D", "config": {"padding": "same", "use_bias": false, "bias_regularizer": null, "pointwise_initializer": {"class_name": "VarianceScaling", "config": {"distribution": "uniform", "scale": 1.0, "seed": null, "mode": "fan_avg"}}, "bias_constraint": null, "activity_regularizer": null, "trainable": true, "pointwise_constraint": null, "data_format": "channels_last", "depthwise_initializer": {"class_name": "VarianceScaling", "config": {"distribution": "uniform", "scale": 1.0, "seed": null, "mode": "fan_avg"}}, "depthwise_constraint": null, "strides": [1, 1], "pointwise_regularizer": null, "filters": 44, "bias_initializer": {"class_name": "Zeros", "config": {}}, "depth_multiplier": 1, "dilation_rate": [1, 1], "depthwise_regularizer": null, "activation": "linear", "kernel_size": [3, 3], "name": "separable_conv_1_normal_right1_1"}, "inbound_nodes": [[["activation_38", 0, 0, {}]]], "name": "separable_conv_1_normal_right1_1"}, {"class_name": "SeparableConv2D", "config": {"padding": "same", "use_bias": false, "bias_regularizer": null, "pointwise_initializer": {"class_name": "VarianceScaling", "config": {"distribution": "uniform", "scale": 1.0, "seed": null, "mode": "fan_avg"}}, "bias_constraint": null, "activity_regularizer": null, "trainable": true, "pointwise_constraint": null, "data_format": "channels_last", "depthwise_initializer": {"class_name": "VarianceScaling", "config": {"distribution": "uniform", "scale": 1.0, "seed": null, "mode": "fan_avg"}}, "depthwise_constraint": null, "strides": [1, 1], "pointwise_regularizer": null, "filters": 44, "bias_initializer": {"class_name": "Zeros", "config": {}}, "depth_multiplier": 1, "dilation_rate": [1, 1], "depthwise_regularizer": null, "activation": "linear", "kernel_size": [5, 5], "name": "separable_conv_1_normal_left2_1"}, "inbound_nodes": [[["activation_40", 0, 0, {}]]], "name": "separable_conv_1_normal_left2_1"}, {"class_name": "SeparableConv2D", "config": {"padding": "same", "use_bias": false, "bias_regularizer": null, "pointwise_initializer": {"class_name": "VarianceScaling", "config": {"distribution": "uniform", "scale": 1.0, "seed": null, "mode": "fan_avg"}}, "bias_constraint": null, "activity_regularizer": null, "trainable": true, "pointwise_constraint": null, "data_format": "channels_last", "depthwise_initializer": {"class_name": "VarianceScaling", "config": {"distribution": "uniform", "scale": 1.0, "seed": null, "mode": "fan_avg"}}, "depthwise_constraint": null, "strides": [1, 1], "pointwise_regularizer": null, "filters": 44, "bias_initializer": {"class_name": "Zeros", "config": {}}, "depth_multiplier": 1, "dilation_rate": [1, 1], "depthwise_regularizer": null, "activation": "linear", "kernel_size": [3, 3], "name": "separable_conv_1_normal_right2_1"}, "inbound_nodes": [[["activation_42", 0, 0, {}]]], "name": "separable_conv_1_normal_right2_1"}, {"class_name": "SeparableConv2D", "config": {"padding": "same", "use_bias": false, "bias_regularizer": null, "pointwise_initializer": {"class_name": "VarianceScaling", "config": {"distribution": "uniform", "scale": 1.0, "seed": null, "mode": "fan_avg"}}, "bias_constraint": null, "activity_regularizer": null, "trainable": true, "pointwise_constraint": null, "data_format": "channels_last", "depthwise_initializer": {"class_name": "VarianceScaling", "config": {"distribution": "uniform", "scale": 1.0, "seed": null, "mode": "fan_avg"}}, "depthwise_constraint": null, "strides": [1, 1], "pointwise_regularizer": null, "filters": 44, "bias_initializer": {"class_name": "Zeros", "config": {}}, "depth_multiplier": 1, "dilation_rate": [1, 1], "depthwise_regularizer": null, "activation": "linear", "kernel_size": [3, 3], "name": "separable_conv_1_normal_left5_1"}, "inbound_nodes": [[["activation_44", 0, 0, {}]]], "name": "separable_conv_1_normal_left5_1"}, {"class_name": "BatchNormalization", "config": {"beta_constraint": null, "gamma_initializer": {"class_name": "Ones", "config": {}}, "moving_mean_initializer": {"class_name": "Zeros", "config": {}}, "name": "separable_conv_1_bn_normal_left1_1", "epsilon": 0.001, "trainable": true, "moving_variance_initializer": {"class_name": "Ones", "config": {}}, "beta_initializer": {"class_name": "Zeros", "config": {}}, "scale": true, "axis": -1, "gamma_constraint": null, "gamma_regularizer": null, "beta_regularizer": null, "momentum": 0.9997, "center": true}, "inbound_nodes": [[["separable_conv_1_normal_left1_1", 0, 0, {}]]], "name": "separable_conv_1_bn_normal_left1_1"}, {"class_name": "BatchNormalization", "config": {"beta_constraint": null, "gamma_initializer": {"class_name": "Ones", "config": {}}, "moving_mean_initializer": {"class_name": "Zeros", "config": {}}, "name": "separable_conv_1_bn_normal_right1_1", "epsilon": 0.001, "trainable": true, "moving_variance_initializer": {"class_name": "Ones", "config": {}}, "beta_initializer": {"class_name": "Zeros", "config": {}}, "scale": true, "axis": -1, "gamma_constraint": null, "gamma_regularizer": null, "beta_regularizer": null, "momentum": 0.9997, "center": true}, "inbound_nodes": [[["separable_conv_1_normal_right1_1", 0, 0, {}]]], "name": "separable_conv_1_bn_normal_right1_1"}, {"class_name": "BatchNormalization", "config": {"beta_constraint": null, "gamma_initializer": {"class_name": "Ones", "config": {}}, "moving_mean_initializer": {"class_name": "Zeros", "config": {}}, "name": "separable_conv_1_bn_normal_left2_1", "epsilon": 0.001, "trainable": true, "moving_variance_initializer": {"class_name": "Ones", "config": {}}, "beta_initializer": {"class_name": "Zeros", "config": {}}, "scale": true, "axis": -1, "gamma_constraint": null, "gamma_regularizer": null, "beta_regularizer": null, "momentum": 0.9997, "center": true}, "inbound_nodes": [[["separable_conv_1_normal_left2_1", 0, 0, {}]]], "name": "separable_conv_1_bn_normal_left2_1"}, {"class_name": "BatchNormalization", "config": {"beta_constraint": null, "gamma_initializer": {"class_name": "Ones", "config": {}}, "moving_mean_initializer": {"class_name": "Zeros", "config": {}}, "name": "separable_conv_1_bn_normal_right2_1", "epsilon": 0.001, "trainable": true, "moving_variance_initializer": {"class_name": "Ones", "config": {}}, "beta_initializer": {"class_name": "Zeros", "config": {}}, "scale": true, "axis": -1, "gamma_constraint": null, "gamma_regularizer": null, "beta_regularizer": null, "momentum": 0.9997, "center": true}, "inbound_nodes": [[["separable_conv_1_normal_right2_1", 0, 0, {}]]], "name": "separable_conv_1_bn_normal_right2_1"}, {"class_name": "BatchNormalization", "config": {"beta_constraint": null, "gamma_initializer": {"class_name": "Ones", "config": {}}, "moving_mean_initializer": {"class_name": "Zeros", "config": {}}, "name": "separable_conv_1_bn_normal_left5_1", "epsilon": 0.001, "trainable": true, "moving_variance_initializer": {"class_name": "Ones", "config": {}}, "beta_initializer": {"class_name": "Zeros", "config": {}}, "scale": true, "axis": -1, "gamma_constraint": null, "gamma_regularizer": null, "beta_regularizer": null, "momentum": 0.9997, "center": true}, "inbound_nodes": [[["separable_conv_1_normal_left5_1", 0, 0, {}]]], "name": "separable_conv_1_bn_normal_left5_1"}, {"class_name": "Activation", "config": {"activation": "relu", "trainable": true, "name": "activation_37"}, "inbound_nodes": [[["separable_conv_1_bn_normal_left1_1", 0, 0, {}]]], "name": "activation_37"}, {"class_name": "Activation", "config": {"activation": "relu", "trainable": true, "name": "activation_39"}, "inbound_nodes": [[["separable_conv_1_bn_normal_right1_1", 0, 0, {}]]], "name": "activation_39"}, {"class_name": "Activation", "config": {"activation": "relu", "trainable": true, "name": "activation_41"}, "inbound_nodes": [[["separable_conv_1_bn_normal_left2_1", 0, 0, {}]]], "name": "activation_41"}, {"class_name": "Activation", "config": {"activation": "relu", "trainable": true, "name": "activation_43"}, "inbound_nodes": [[["separable_conv_1_bn_normal_right2_1", 0, 0, {}]]], "name": "activation_43"}, {"class_name": "Activation", "config": {"activation": "relu", "trainable": true, "name": "activation_45"}, "inbound_nodes": [[["separable_conv_1_bn_normal_left5_1", 0, 0, {}]]], "name": "activation_45"}, {"class_name": "SeparableConv2D", "config": {"padding": "same", "use_bias": false, "bias_regularizer": null, "pointwise_initializer": {"class_name": "VarianceScaling", "config": {"distribution": "uniform", "scale": 1.0, "seed": null, "mode": "fan_avg"}}, "bias_constraint": null, "activity_regularizer": null, "trainable": true, "pointwise_constraint": null, "data_format": "channels_last", "depthwise_initializer": {"class_name": "VarianceScaling", "config": {"distribution": "uniform", "scale": 1.0, "seed": null, "mode": "fan_avg"}}, "depthwise_constraint": null, "strides": [1, 1], "pointwise_regularizer": null, "filters": 44, "bias_initializer": {"class_name": "Zeros", "config": {}}, "depth_multiplier": 1, "dilation_rate": [1, 1], "depthwise_regularizer": null, "activation": "linear", "kernel_size": [5, 5], "name": "separable_conv_2_normal_left1_1"}, "inbound_nodes": [[["activation_37", 0, 0, {}]]], "name": "separable_conv_2_normal_left1_1"}, {"class_name": "SeparableConv2D", "config": {"padding": "same", "use_bias": false, "bias_regularizer": null, "pointwise_initializer": {"class_name": "VarianceScaling", "config": {"distribution": "uniform", "scale": 1.0, "seed": null, "mode": "fan_avg"}}, "bias_constraint": null, "activity_regularizer": null, "trainable": true, "pointwise_constraint": null, "data_format": "channels_last", "depthwise_initializer": {"class_name": "VarianceScaling", "config": {"distribution": "uniform", "scale": 1.0, "seed": null, "mode": "fan_avg"}}, "depthwise_constraint": null, "strides": [1, 1], "pointwise_regularizer": null, "filters": 44, "bias_initializer": {"class_name": "Zeros", "config": {}}, "depth_multiplier": 1, "dilation_rate": [1, 1], "depthwise_regularizer": null, "activation": "linear", "kernel_size": [3, 3], "name": "separable_conv_2_normal_right1_1"}, "inbound_nodes": [[["activation_39", 0, 0, {}]]], "name": "separable_conv_2_normal_right1_1"}, {"class_name": "SeparableConv2D", "config": {"padding": "same", "use_bias": false, "bias_regularizer": null, "pointwise_initializer": {"class_name": "VarianceScaling", "config": {"distribution": "uniform", "scale": 1.0, "seed": null, "mode": "fan_avg"}}, "bias_constraint": null, "activity_regularizer": null, "trainable": true, "pointwise_constraint": null, "data_format": "channels_last", "depthwise_initializer": {"class_name": "VarianceScaling", "config": {"distribution": "uniform", "scale": 1.0, "seed": null, "mode": "fan_avg"}}, "depthwise_constraint": null, "strides": [1, 1], "pointwise_regularizer": null, "filters": 44, "bias_initializer": {"class_name": "Zeros", "config": {}}, "depth_multiplier": 1, "dilation_rate": [1, 1], "depthwise_regularizer": null, "activation": "linear", "kernel_size": [5, 5], "name": "separable_conv_2_normal_left2_1"}, "inbound_nodes": [[["activation_41", 0, 0, {}]]], "name": "separable_conv_2_normal_left2_1"}, {"class_name": "SeparableConv2D", "config": {"padding": "same", "use_bias": false, "bias_regularizer": null, "pointwise_initializer": {"class_name": "VarianceScaling", "config": {"distribution": "uniform", "scale": 1.0, "seed": null, "mode": "fan_avg"}}, "bias_constraint": null, "activity_regularizer": null, "trainable": true, "pointwise_constraint": null, "data_format": "channels_last", "depthwise_initializer": {"class_name": "VarianceScaling", "config": {"distribution": "uniform", "scale": 1.0, "seed": null, "mode": "fan_avg"}}, "depthwise_constraint": null, "strides": [1, 1], "pointwise_regularizer": null, "filters": 44, "bias_initializer": {"class_name": "Zeros", "config": {}}, "depth_multiplier": 1, "dilation_rate": [1, 1], "depthwise_regularizer": null, "activation": "linear", "kernel_size": [3, 3], "name": "separable_conv_2_normal_right2_1"}, "inbound_nodes": [[["activation_43", 0, 0, {}]]], "name": "separable_conv_2_normal_right2_1"}, {"class_name": "SeparableConv2D", "config": {"padding": "same", "use_bias": false, "bias_regularizer": null, "pointwise_initializer": {"class_name": "VarianceScaling", "config": {"distribution": "uniform", "scale": 1.0, "seed": null, "mode": "fan_avg"}}, "bias_constraint": null, "activity_regularizer": null, "trainable": true, "pointwise_constraint": null, "data_format": "channels_last", "depthwise_initializer": {"class_name": "VarianceScaling", "config": {"distribution": "uniform", "scale": 1.0, "seed": null, "mode": "fan_avg"}}, "depthwise_constraint": null, "strides": [1, 1], "pointwise_regularizer": null, "filters": 44, "bias_initializer": {"class_name": "Zeros", "config": {}}, "depth_multiplier": 1, "dilation_rate": [1, 1], "depthwise_regularizer": null, "activation": "linear", "kernel_size": [3, 3], "name": "separable_conv_2_normal_left5_1"}, "inbound_nodes": [[["activation_45", 0, 0, {}]]], "name": "separable_conv_2_normal_left5_1"}, {"class_name": "BatchNormalization", "config": {"beta_constraint": null, "gamma_initializer": {"class_name": "Ones", "config": {}}, "moving_mean_initializer": {"class_name": "Zeros", "config": {}}, "name": "separable_conv_2_bn_normal_left1_1", "epsilon": 0.001, "trainable": true, "moving_variance_initializer": {"class_name": "Ones", "config": {}}, "beta_initializer": {"class_name": "Zeros", "config": {}}, "scale": true, "axis": -1, "gamma_constraint": null, "gamma_regularizer": null, "beta_regularizer": null, "momentum": 0.9997, "center": true}, "inbound_nodes": [[["separable_conv_2_normal_left1_1", 0, 0, {}]]], "name": "separable_conv_2_bn_normal_left1_1"}, {"class_name": "BatchNormalization", "config": {"beta_constraint": null, "gamma_initializer": {"class_name": "Ones", "config": {}}, "moving_mean_initializer": {"class_name": "Zeros", "config": {}}, "name": "separable_conv_2_bn_normal_right1_1", "epsilon": 0.001, "trainable": true, "moving_variance_initializer": {"class_name": "Ones", "config": {}}, "beta_initializer": {"class_name": "Zeros", "config": {}}, "scale": true, "axis": -1, "gamma_constraint": null, "gamma_regularizer": null, "beta_regularizer": null, "momentum": 0.9997, "center": true}, "inbound_nodes": [[["separable_conv_2_normal_right1_1", 0, 0, {}]]], "name": "separable_conv_2_bn_normal_right1_1"}, {"class_name": "BatchNormalization", "config": {"beta_constraint": null, "gamma_initializer": {"class_name": "Ones", "config": {}}, "moving_mean_initializer": {"class_name": "Zeros", "config": {}}, "name": "separable_conv_2_bn_normal_left2_1", "epsilon": 0.001, "trainable": true, "moving_variance_initializer": {"class_name": "Ones", "config": {}}, "beta_initializer": {"class_name": "Zeros", "config": {}}, "scale": true, "axis": -1, "gamma_constraint": null, "gamma_regularizer": null, "beta_regularizer": null, "momentum": 0.9997, "center": true}, "inbound_nodes": [[["separable_conv_2_normal_left2_1", 0, 0, {}]]], "name": "separable_conv_2_bn_normal_left2_1"}, {"class_name": "BatchNormalization", "config": {"beta_constraint": null, "gamma_initializer": {"class_name": "Ones", "config": {}}, "moving_mean_initializer": {"class_name": "Zeros", "config": {}}, "name": "separable_conv_2_bn_normal_right2_1", "epsilon": 0.001, "trainable": true, "moving_variance_initializer": {"class_name": "Ones", "config": {}}, "beta_initializer": {"class_name": "Zeros", "config": {}}, "scale": true, "axis": -1, "gamma_constraint": null, "gamma_regularizer": null, "beta_regularizer": null, "momentum": 0.9997, "center": true}, "inbound_nodes": [[["separable_conv_2_normal_right2_1", 0, 0, {}]]], "name": "separable_conv_2_bn_normal_right2_1"}, {"class_name": "AveragePooling2D", "config": {"name": "normal_left3_1", "trainable": true, "data_format": "channels_last", "pool_size": [3, 3], "padding": "same", "strides": [1, 1]}, "inbound_nodes": [[["normal_bn_1_1", 0, 0, {}]]], "name": "normal_left3_1"}, {"class_name": "AveragePooling2D", "config": {"name": "normal_left4_1", "trainable": true, "data_format": "channels_last", "pool_size": [3, 3], "padding": "same", "strides": [1, 1]}, "inbound_nodes": [[["adjust_bn_1", 0, 0, {}]]], "name": "normal_left4_1"}, {"class_name": "AveragePooling2D", "config": {"name": "normal_right4_1", "trainable": true, "data_format": "channels_last", "pool_size": [3, 3], "padding": "same", "strides": [1, 1]}, "inbound_nodes": [[["adjust_bn_1", 0, 0, {}]]], "name": "normal_right4_1"}, {"class_name": "BatchNormalization", "config": {"beta_constraint": null, "gamma_initializer": {"class_name": "Ones", "config": {}}, "moving_mean_initializer": {"class_name": "Zeros", "config": {}}, "name": "separable_conv_2_bn_normal_left5_1", "epsilon": 0.001, "trainable": true, "moving_variance_initializer": {"class_name": "Ones", "config": {}}, "beta_initializer": {"class_name": "Zeros", "config": {}}, "scale": true, "axis": -1, "gamma_constraint": null, "gamma_regularizer": null, "beta_regularizer": null, "momentum": 0.9997, "center": true}, "inbound_nodes": [[["separable_conv_2_normal_left5_1", 0, 0, {}]]], "name": "separable_conv_2_bn_normal_left5_1"}, {"class_name": "Add", "config": {"trainable": true, "name": "normal_add_1_1"}, "inbound_nodes": [[["separable_conv_2_bn_normal_left1_1", 0, 0, {}], ["separable_conv_2_bn_normal_right1_1", 0, 0, {}]]], "name": "normal_add_1_1"}, {"class_name": "Add", "config": {"trainable": true, "name": "normal_add_2_1"}, "inbound_nodes": [[["separable_conv_2_bn_normal_left2_1", 0, 0, {}], ["separable_conv_2_bn_normal_right2_1", 0, 0, {}]]], "name": "normal_add_2_1"}, {"class_name": "Add", "config": {"trainable": true, "name": "normal_add_3_1"}, "inbound_nodes": [[["normal_left3_1", 0, 0, {}], ["adjust_bn_1", 0, 0, {}]]], "name": "normal_add_3_1"}, {"class_name": "Add", "config": {"trainable": true, "name": "normal_add_4_1"}, "inbound_nodes": [[["normal_left4_1", 0, 0, {}], ["normal_right4_1", 0, 0, {}]]], "name": "normal_add_4_1"}, {"class_name": "Add", "config": {"trainable": true, "name": "normal_add_5_1"}, "inbound_nodes": [[["separable_conv_2_bn_normal_left5_1", 0, 0, {}], ["normal_bn_1_1", 0, 0, {}]]], "name": "normal_add_5_1"}, {"class_name": "Concatenate", "config": {"trainable": true, "name": "normal_concat_1", "axis": -1}, "inbound_nodes": [[["adjust_bn_1", 0, 0, {}], ["normal_add_1_1", 0, 0, {}], ["normal_add_2_1", 0, 0, {}], ["normal_add_3_1", 0, 0, {}], ["normal_add_4_1", 0, 0, {}], ["normal_add_5_1", 0, 0, {}]]], "name": "normal_concat_1"}, {"class_name": "Activation", "config": {"activation": "relu", "trainable": true, "name": "activation_46"}, "inbound_nodes": [[["normal_concat_0", 0, 0, {}]]], "name": "activation_46"}, {"class_name": "Activation", "config": {"activation": "relu", "trainable": true, "name": "activation_47"}, "inbound_nodes": [[["normal_concat_1", 0, 0, {}]]], "name": "activation_47"}, {"class_name": "Conv2D", "config": {"kernel_constraint": null, "kernel_initializer": {"class_name": "VarianceScaling", "config": {"distribution": "normal", "scale": 2.0, "seed": null, "mode": "fan_in"}}, "name": "adjust_conv_projection_2", "bias_regularizer": null, "bias_constraint": null, "activation": "linear", "trainable": true, "data_format": "channels_last", "padding": "same", "strides": [1, 1], "dilation_rate": [1, 1], "kernel_regularizer": null, "filters": 44, "bias_initializer": {"class_name": "Zeros", "config": {}}, "use_bias": false, "activity_regularizer": null, "kernel_size": [1, 1]}, "inbound_nodes": [[["activation_46", 0, 0, {}]]], "name": "adjust_conv_projection_2"}, {"class_name": "Conv2D", "config": {"kernel_constraint": null, "kernel_initializer": {"class_name": "VarianceScaling", "config": {"distribution": "normal", "scale": 2.0, "seed": null, "mode": "fan_in"}}, "name": "normal_conv_1_2", "bias_regularizer": null, "bias_constraint": null, "activation": "linear", "trainable": true, "data_format": "channels_last", "padding": "same", "strides": [1, 1], "dilation_rate": [1, 1], "kernel_regularizer": null, "filters": 44, "bias_initializer": {"class_name": "Zeros", "config": {}}, "use_bias": false, "activity_regularizer": null, "kernel_size": [1, 1]}, "inbound_nodes": [[["activation_47", 0, 0, {}]]], "name": "normal_conv_1_2"}, {"class_name": "BatchNormalization", "config": {"beta_constraint": null, "gamma_initializer": {"class_name": "Ones", "config": {}}, "moving_mean_initializer": {"class_name": "Zeros", "config": {}}, "name": "adjust_bn_2", "epsilon": 0.001, "trainable": true, "moving_variance_initializer": {"class_name": "Ones", "config": {}}, "beta_initializer": {"class_name": "Zeros", "config": {}}, "scale": true, "axis": -1, "gamma_constraint": null, "gamma_regularizer": null, "beta_regularizer": null, "momentum": 0.9997, "center": true}, "inbound_nodes": [[["adjust_conv_projection_2", 0, 0, {}]]], "name": "adjust_bn_2"}, {"class_name": "BatchNormalization", "config": {"beta_constraint": null, "gamma_initializer": {"class_name": "Ones", "config": {}}, "moving_mean_initializer": {"class_name": "Zeros", "config": {}}, "name": "normal_bn_1_2", "epsilon": 0.001, "trainable": true, "moving_variance_initializer": {"class_name": "Ones", "config": {}}, "beta_initializer": {"class_name": "Zeros", "config": {}}, "scale": true, "axis": -1, "gamma_constraint": null, "gamma_regularizer": null, "beta_regularizer": null, "momentum": 0.9997, "center": true}, "inbound_nodes": [[["normal_conv_1_2", 0, 0, {}]]], "name": "normal_bn_1_2"}, {"class_name": "Activation", "config": {"activation": "relu", "trainable": true, "name": "activation_48"}, "inbound_nodes": [[["normal_bn_1_2", 0, 0, {}]]], "name": "activation_48"}, {"class_name": "Activation", "config": {"activation": "relu", "trainable": true, "name": "activation_50"}, "inbound_nodes": [[["adjust_bn_2", 0, 0, {}]]], "name": "activation_50"}, {"class_name": "Activation", "config": {"activation": "relu", "trainable": true, "name": "activation_52"}, "inbound_nodes": [[["adjust_bn_2", 0, 0, {}]]], "name": "activation_52"}, {"class_name": "Activation", "config": {"activation": "relu", "trainable": true, "name": "activation_54"}, "inbound_nodes": [[["adjust_bn_2", 0, 0, {}]]], "name": "activation_54"}, {"class_name": "Activation", "config": {"activation": "relu", "trainable": true, "name": "activation_56"}, "inbound_nodes": [[["normal_bn_1_2", 0, 0, {}]]], "name": "activation_56"}, {"class_name": "SeparableConv2D", "config": {"padding": "same", "use_bias": false, "bias_regularizer": null, "pointwise_initializer": {"class_name": "VarianceScaling", "config": {"distribution": "uniform", "scale": 1.0, "seed": null, "mode": "fan_avg"}}, "bias_constraint": null, "activity_regularizer": null, "trainable": true, "pointwise_constraint": null, "data_format": "channels_last", "depthwise_initializer": {"class_name": "VarianceScaling", "config": {"distribution": "uniform", "scale": 1.0, "seed": null, "mode": "fan_avg"}}, "depthwise_constraint": null, "strides": [1, 1], "pointwise_regularizer": null, "filters": 44, "bias_initializer": {"class_name": "Zeros", "config": {}}, "depth_multiplier": 1, "dilation_rate": [1, 1], "depthwise_regularizer": null, "activation": "linear", "kernel_size": [5, 5], "name": "separable_conv_1_normal_left1_2"}, "inbound_nodes": [[["activation_48", 0, 0, {}]]], "name": "separable_conv_1_normal_left1_2"}, {"class_name": "SeparableConv2D", "config": {"padding": "same", "use_bias": false, "bias_regularizer": null, "pointwise_initializer": {"class_name": "VarianceScaling", "config": {"distribution": "uniform", "scale": 1.0, "seed": null, "mode": "fan_avg"}}, "bias_constraint": null, "activity_regularizer": null, "trainable": true, "pointwise_constraint": null, "data_format": "channels_last", "depthwise_initializer": {"class_name": "VarianceScaling", "config": {"distribution": "uniform", "scale": 1.0, "seed": null, "mode": "fan_avg"}}, "depthwise_constraint": null, "strides": [1, 1], "pointwise_regularizer": null, "filters": 44, "bias_initializer": {"class_name": "Zeros", "config": {}}, "depth_multiplier": 1, "dilation_rate": [1, 1], "depthwise_regularizer": null, "activation": "linear", "kernel_size": [3, 3], "name": "separable_conv_1_normal_right1_2"}, "inbound_nodes": [[["activation_50", 0, 0, {}]]], "name": "separable_conv_1_normal_right1_2"}, {"class_name": "SeparableConv2D", "config": {"padding": "same", "use_bias": false, "bias_regularizer": null, "pointwise_initializer": {"class_name": "VarianceScaling", "config": {"distribution": "uniform", "scale": 1.0, "seed": null, "mode": "fan_avg"}}, "bias_constraint": null, "activity_regularizer": null, "trainable": true, "pointwise_constraint": null, "data_format": "channels_last", "depthwise_initializer": {"class_name": "VarianceScaling", "config": {"distribution": "uniform", "scale": 1.0, "seed": null, "mode": "fan_avg"}}, "depthwise_constraint": null, "strides": [1, 1], "pointwise_regularizer": null, "filters": 44, "bias_initializer": {"class_name": "Zeros", "config": {}}, "depth_multiplier": 1, "dilation_rate": [1, 1], "depthwise_regularizer": null, "activation": "linear", "kernel_size": [5, 5], "name": "separable_conv_1_normal_left2_2"}, "inbound_nodes": [[["activation_52", 0, 0, {}]]], "name": "separable_conv_1_normal_left2_2"}, {"class_name": "SeparableConv2D", "config": {"padding": "same", "use_bias": false, "bias_regularizer": null, "pointwise_initializer": {"class_name": "VarianceScaling", "config": {"distribution": "uniform", "scale": 1.0, "seed": null, "mode": "fan_avg"}}, "bias_constraint": null, "activity_regularizer": null, "trainable": true, "pointwise_constraint": null, "data_format": "channels_last", "depthwise_initializer": {"class_name": "VarianceScaling", "config": {"distribution": "uniform", "scale": 1.0, "seed": null, "mode": "fan_avg"}}, "depthwise_constraint": null, "strides": [1, 1], "pointwise_regularizer": null, "filters": 44, "bias_initializer": {"class_name": "Zeros", "config": {}}, "depth_multiplier": 1, "dilation_rate": [1, 1], "depthwise_regularizer": null, "activation": "linear", "kernel_size": [3, 3], "name": "separable_conv_1_normal_right2_2"}, "inbound_nodes": [[["activation_54", 0, 0, {}]]], "name": "separable_conv_1_normal_right2_2"}, {"class_name": "SeparableConv2D", "config": {"padding": "same", "use_bias": false, "bias_regularizer": null, "pointwise_initializer": {"class_name": "VarianceScaling", "config": {"distribution": "uniform", "scale": 1.0, "seed": null, "mode": "fan_avg"}}, "bias_constraint": null, "activity_regularizer": null, "trainable": true, "pointwise_constraint": null, "data_format": "channels_last", "depthwise_initializer": {"class_name": "VarianceScaling", "config": {"distribution": "uniform", "scale": 1.0, "seed": null, "mode": "fan_avg"}}, "depthwise_constraint": null, "strides": [1, 1], "pointwise_regularizer": null, "filters": 44, "bias_initializer": {"class_name": "Zeros", "config": {}}, "depth_multiplier": 1, "dilation_rate": [1, 1], "depthwise_regularizer": null, "activation": "linear", "kernel_size": [3, 3], "name": "separable_conv_1_normal_left5_2"}, "inbound_nodes": [[["activation_56", 0, 0, {}]]], "name": "separable_conv_1_normal_left5_2"}, {"class_name": "BatchNormalization", "config": {"beta_constraint": null, "gamma_initializer": {"class_name": "Ones", "config": {}}, "moving_mean_initializer": {"class_name": "Zeros", "config": {}}, "name": "separable_conv_1_bn_normal_left1_2", "epsilon": 0.001, "trainable": true, "moving_variance_initializer": {"class_name": "Ones", "config": {}}, "beta_initializer": {"class_name": "Zeros", "config": {}}, "scale": true, "axis": -1, "gamma_constraint": null, "gamma_regularizer": null, "beta_regularizer": null, "momentum": 0.9997, "center": true}, "inbound_nodes": [[["separable_conv_1_normal_left1_2", 0, 0, {}]]], "name": "separable_conv_1_bn_normal_left1_2"}, {"class_name": "BatchNormalization", "config": {"beta_constraint": null, "gamma_initializer": {"class_name": "Ones", "config": {}}, "moving_mean_initializer": {"class_name": "Zeros", "config": {}}, "name": "separable_conv_1_bn_normal_right1_2", "epsilon": 0.001, "trainable": true, "moving_variance_initializer": {"class_name": "Ones", "config": {}}, "beta_initializer": {"class_name": "Zeros", "config": {}}, "scale": true, "axis": -1, "gamma_constraint": null, "gamma_regularizer": null, "beta_regularizer": null, "momentum": 0.9997, "center": true}, "inbound_nodes": [[["separable_conv_1_normal_right1_2", 0, 0, {}]]], "name": "separable_conv_1_bn_normal_right1_2"}, {"class_name": "BatchNormalization", "config": {"beta_constraint": null, "gamma_initializer": {"class_name": "Ones", "config": {}}, "moving_mean_initializer": {"class_name": "Zeros", "config": {}}, "name": "separable_conv_1_bn_normal_left2_2", "epsilon": 0.001, "trainable": true, "moving_variance_initializer": {"class_name": "Ones", "config": {}}, "beta_initializer": {"class_name": "Zeros", "config": {}}, "scale": true, "axis": -1, "gamma_constraint": null, "gamma_regularizer": null, "beta_regularizer": null, "momentum": 0.9997, "center": true}, "inbound_nodes": [[["separable_conv_1_normal_left2_2", 0, 0, {}]]], "name": "separable_conv_1_bn_normal_left2_2"}, {"class_name": "BatchNormalization", "config": {"beta_constraint": null, "gamma_initializer": {"class_name": "Ones", "config": {}}, "moving_mean_initializer": {"class_name": "Zeros", "config": {}}, "name": "separable_conv_1_bn_normal_right2_2", "epsilon": 0.001, "trainable": true, "moving_variance_initializer": {"class_name": "Ones", "config": {}}, "beta_initializer": {"class_name": "Zeros", "config": {}}, "scale": true, "axis": -1, "gamma_constraint": null, "gamma_regularizer": null, "beta_regularizer": null, "momentum": 0.9997, "center": true}, "inbound_nodes": [[["separable_conv_1_normal_right2_2", 0, 0, {}]]], "name": "separable_conv_1_bn_normal_right2_2"}, {"class_name": "BatchNormalization", "config": {"beta_constraint": null, "gamma_initializer": {"class_name": "Ones", "config": {}}, "moving_mean_initializer": {"class_name": "Zeros", "config": {}}, "name": "separable_conv_1_bn_normal_left5_2", "epsilon": 0.001, "trainable": true, "moving_variance_initializer": {"class_name": "Ones", "config": {}}, "beta_initializer": {"class_name": "Zeros", "config": {}}, "scale": true, "axis": -1, "gamma_constraint": null, "gamma_regularizer": null, "beta_regularizer": null, "momentum": 0.9997, "center": true}, "inbound_nodes": [[["separable_conv_1_normal_left5_2", 0, 0, {}]]], "name": "separable_conv_1_bn_normal_left5_2"}, {"class_name": "Activation", "config": {"activation": "relu", "trainable": true, "name": "activation_49"}, "inbound_nodes": [[["separable_conv_1_bn_normal_left1_2", 0, 0, {}]]], "name": "activation_49"}, {"class_name": "Activation", "config": {"activation": "relu", "trainable": true, "name": "activation_51"}, "inbound_nodes": [[["separable_conv_1_bn_normal_right1_2", 0, 0, {}]]], "name": "activation_51"}, {"class_name": "Activation", "config": {"activation": "relu", "trainable": true, "name": "activation_53"}, "inbound_nodes": [[["separable_conv_1_bn_normal_left2_2", 0, 0, {}]]], "name": "activation_53"}, {"class_name": "Activation", "config": {"activation": "relu", "trainable": true, "name": "activation_55"}, "inbound_nodes": [[["separable_conv_1_bn_normal_right2_2", 0, 0, {}]]], "name": "activation_55"}, {"class_name": "Activation", "config": {"activation": "relu", "trainable": true, "name": "activation_57"}, "inbound_nodes": [[["separable_conv_1_bn_normal_left5_2", 0, 0, {}]]], "name": "activation_57"}, {"class_name": "SeparableConv2D", "config": {"padding": "same", "use_bias": false, "bias_regularizer": null, "pointwise_initializer": {"class_name": "VarianceScaling", "config": {"distribution": "uniform", "scale": 1.0, "seed": null, "mode": "fan_avg"}}, "bias_constraint": null, "activity_regularizer": null, "trainable": true, "pointwise_constraint": null, "data_format": "channels_last", "depthwise_initializer": {"class_name": "VarianceScaling", "config": {"distribution": "uniform", "scale": 1.0, "seed": null, "mode": "fan_avg"}}, "depthwise_constraint": null, "strides": [1, 1], "pointwise_regularizer": null, "filters": 44, "bias_initializer": {"class_name": "Zeros", "config": {}}, "depth_multiplier": 1, "dilation_rate": [1, 1], "depthwise_regularizer": null, "activation": "linear", "kernel_size": [5, 5], "name": "separable_conv_2_normal_left1_2"}, "inbound_nodes": [[["activation_49", 0, 0, {}]]], "name": "separable_conv_2_normal_left1_2"}, {"class_name": "SeparableConv2D", "config": {"padding": "same", "use_bias": false, "bias_regularizer": null, "pointwise_initializer": {"class_name": "VarianceScaling", "config": {"distribution": "uniform", "scale": 1.0, "seed": null, "mode": "fan_avg"}}, "bias_constraint": null, "activity_regularizer": null, "trainable": true, "pointwise_constraint": null, "data_format": "channels_last", "depthwise_initializer": {"class_name": "VarianceScaling", "config": {"distribution": "uniform", "scale": 1.0, "seed": null, "mode": "fan_avg"}}, "depthwise_constraint": null, "strides": [1, 1], "pointwise_regularizer": null, "filters": 44, "bias_initializer": {"class_name": "Zeros", "config": {}}, "depth_multiplier": 1, "dilation_rate": [1, 1], "depthwise_regularizer": null, "activation": "linear", "kernel_size": [3, 3], "name": "separable_conv_2_normal_right1_2"}, "inbound_nodes": [[["activation_51", 0, 0, {}]]], "name": "separable_conv_2_normal_right1_2"}, {"class_name": "SeparableConv2D", "config": {"padding": "same", "use_bias": false, "bias_regularizer": null, "pointwise_initializer": {"class_name": "VarianceScaling", "config": {"distribution": "uniform", "scale": 1.0, "seed": null, "mode": "fan_avg"}}, "bias_constraint": null, "activity_regularizer": null, "trainable": true, "pointwise_constraint": null, "data_format": "channels_last", "depthwise_initializer": {"class_name": "VarianceScaling", "config": {"distribution": "uniform", "scale": 1.0, "seed": null, "mode": "fan_avg"}}, "depthwise_constraint": null, "strides": [1, 1], "pointwise_regularizer": null, "filters": 44, "bias_initializer": {"class_name": "Zeros", "config": {}}, "depth_multiplier": 1, "dilation_rate": [1, 1], "depthwise_regularizer": null, "activation": "linear", "kernel_size": [5, 5], "name": "separable_conv_2_normal_left2_2"}, "inbound_nodes": [[["activation_53", 0, 0, {}]]], "name": "separable_conv_2_normal_left2_2"}, {"class_name": "SeparableConv2D", "config": {"padding": "same", "use_bias": false, "bias_regularizer": null, "pointwise_initializer": {"class_name": "VarianceScaling", "config": {"distribution": "uniform", "scale": 1.0, "seed": null, "mode": "fan_avg"}}, "bias_constraint": null, "activity_regularizer": null, "trainable": true, "pointwise_constraint": null, "data_format": "channels_last", "depthwise_initializer": {"class_name": "VarianceScaling", "config": {"distribution": "uniform", "scale": 1.0, "seed": null, "mode": "fan_avg"}}, "depthwise_constraint": null, "strides": [1, 1], "pointwise_regularizer": null, "filters": 44, "bias_initializer": {"class_name": "Zeros", "config": {}}, "depth_multiplier": 1, "dilation_rate": [1, 1], "depthwise_regularizer": null, "activation": "linear", "kernel_size": [3, 3], "name": "separable_conv_2_normal_right2_2"}, "inbound_nodes": [[["activation_55", 0, 0, {}]]], "name": "separable_conv_2_normal_right2_2"}, {"class_name": "SeparableConv2D", "config": {"padding": "same", "use_bias": false, "bias_regularizer": null, "pointwise_initializer": {"class_name": "VarianceScaling", "config": {"distribution": "uniform", "scale": 1.0, "seed": null, "mode": "fan_avg"}}, "bias_constraint": null, "activity_regularizer": null, "trainable": true, "pointwise_constraint": null, "data_format": "channels_last", "depthwise_initializer": {"class_name": "VarianceScaling", "config": {"distribution": "uniform", "scale": 1.0, "seed": null, "mode": "fan_avg"}}, "depthwise_constraint": null, "strides": [1, 1], "pointwise_regularizer": null, "filters": 44, "bias_initializer": {"class_name": "Zeros", "config": {}}, "depth_multiplier": 1, "dilation_rate": [1, 1], "depthwise_regularizer": null, "activation": "linear", "kernel_size": [3, 3], "name": "separable_conv_2_normal_left5_2"}, "inbound_nodes": [[["activation_57", 0, 0, {}]]], "name": "separable_conv_2_normal_left5_2"}, {"class_name": "BatchNormalization", "config": {"beta_constraint": null, "gamma_initializer": {"class_name": "Ones", "config": {}}, "moving_mean_initializer": {"class_name": "Zeros", "config": {}}, "name": "separable_conv_2_bn_normal_left1_2", "epsilon": 0.001, "trainable": true, "moving_variance_initializer": {"class_name": "Ones", "config": {}}, "beta_initializer": {"class_name": "Zeros", "config": {}}, "scale": true, "axis": -1, "gamma_constraint": null, "gamma_regularizer": null, "beta_regularizer": null, "momentum": 0.9997, "center": true}, "inbound_nodes": [[["separable_conv_2_normal_left1_2", 0, 0, {}]]], "name": "separable_conv_2_bn_normal_left1_2"}, {"class_name": "BatchNormalization", "config": {"beta_constraint": null, "gamma_initializer": {"class_name": "Ones", "config": {}}, "moving_mean_initializer": {"class_name": "Zeros", "config": {}}, "name": "separable_conv_2_bn_normal_right1_2", "epsilon": 0.001, "trainable": true, "moving_variance_initializer": {"class_name": "Ones", "config": {}}, "beta_initializer": {"class_name": "Zeros", "config": {}}, "scale": true, "axis": -1, "gamma_constraint": null, "gamma_regularizer": null, "beta_regularizer": null, "momentum": 0.9997, "center": true}, "inbound_nodes": [[["separable_conv_2_normal_right1_2", 0, 0, {}]]], "name": "separable_conv_2_bn_normal_right1_2"}, {"class_name": "BatchNormalization", "config": {"beta_constraint": null, "gamma_initializer": {"class_name": "Ones", "config": {}}, "moving_mean_initializer": {"class_name": "Zeros", "config": {}}, "name": "separable_conv_2_bn_normal_left2_2", "epsilon": 0.001, "trainable": true, "moving_variance_initializer": {"class_name": "Ones", "config": {}}, "beta_initializer": {"class_name": "Zeros", "config": {}}, "scale": true, "axis": -1, "gamma_constraint": null, "gamma_regularizer": null, "beta_regularizer": null, "momentum": 0.9997, "center": true}, "inbound_nodes": [[["separable_conv_2_normal_left2_2", 0, 0, {}]]], "name": "separable_conv_2_bn_normal_left2_2"}, {"class_name": "BatchNormalization", "config": {"beta_constraint": null, "gamma_initializer": {"class_name": "Ones", "config": {}}, "moving_mean_initializer": {"class_name": "Zeros", "config": {}}, "name": "separable_conv_2_bn_normal_right2_2", "epsilon": 0.001, "trainable": true, "moving_variance_initializer": {"class_name": "Ones", "config": {}}, "beta_initializer": {"class_name": "Zeros", "config": {}}, "scale": true, "axis": -1, "gamma_constraint": null, "gamma_regularizer": null, "beta_regularizer": null, "momentum": 0.9997, "center": true}, "inbound_nodes": [[["separable_conv_2_normal_right2_2", 0, 0, {}]]], "name": "separable_conv_2_bn_normal_right2_2"}, {"class_name": "AveragePooling2D", "config": {"name": "normal_left3_2", "trainable": true, "data_format": "channels_last", "pool_size": [3, 3], "padding": "same", "strides": [1, 1]}, "inbound_nodes": [[["normal_bn_1_2", 0, 0, {}]]], "name": "normal_left3_2"}, {"class_name": "AveragePooling2D", "config": {"name": "normal_left4_2", "trainable": true, "data_format": "channels_last", "pool_size": [3, 3], "padding": "same", "strides": [1, 1]}, "inbound_nodes": [[["adjust_bn_2", 0, 0, {}]]], "name": "normal_left4_2"}, {"class_name": "AveragePooling2D", "config": {"name": "normal_right4_2", "trainable": true, "data_format": "channels_last", "pool_size": [3, 3], "padding": "same", "strides": [1, 1]}, "inbound_nodes": [[["adjust_bn_2", 0, 0, {}]]], "name": "normal_right4_2"}, {"class_name": "BatchNormalization", "config": {"beta_constraint": null, "gamma_initializer": {"class_name": "Ones", "config": {}}, "moving_mean_initializer": {"class_name": "Zeros", "config": {}}, "name": "separable_conv_2_bn_normal_left5_2", "epsilon": 0.001, "trainable": true, "moving_variance_initializer": {"class_name": "Ones", "config": {}}, "beta_initializer": {"class_name": "Zeros", "config": {}}, "scale": true, "axis": -1, "gamma_constraint": null, "gamma_regularizer": null, "beta_regularizer": null, "momentum": 0.9997, "center": true}, "inbound_nodes": [[["separable_conv_2_normal_left5_2", 0, 0, {}]]], "name": "separable_conv_2_bn_normal_left5_2"}, {"class_name": "Add", "config": {"trainable": true, "name": "normal_add_1_2"}, "inbound_nodes": [[["separable_conv_2_bn_normal_left1_2", 0, 0, {}], ["separable_conv_2_bn_normal_right1_2", 0, 0, {}]]], "name": "normal_add_1_2"}, {"class_name": "Add", "config": {"trainable": true, "name": "normal_add_2_2"}, "inbound_nodes": [[["separable_conv_2_bn_normal_left2_2", 0, 0, {}], ["separable_conv_2_bn_normal_right2_2", 0, 0, {}]]], "name": "normal_add_2_2"}, {"class_name": "Add", "config": {"trainable": true, "name": "normal_add_3_2"}, "inbound_nodes": [[["normal_left3_2", 0, 0, {}], ["adjust_bn_2", 0, 0, {}]]], "name": "normal_add_3_2"}, {"class_name": "Add", "config": {"trainable": true, "name": "normal_add_4_2"}, "inbound_nodes": [[["normal_left4_2", 0, 0, {}], ["normal_right4_2", 0, 0, {}]]], "name": "normal_add_4_2"}, {"class_name": "Add", "config": {"trainable": true, "name": "normal_add_5_2"}, "inbound_nodes": [[["separable_conv_2_bn_normal_left5_2", 0, 0, {}], ["normal_bn_1_2", 0, 0, {}]]], "name": "normal_add_5_2"}, {"class_name": "Concatenate", "config": {"trainable": true, "name": "normal_concat_2", "axis": -1}, "inbound_nodes": [[["adjust_bn_2", 0, 0, {}], ["normal_add_1_2", 0, 0, {}], ["normal_add_2_2", 0, 0, {}], ["normal_add_3_2", 0, 0, {}], ["normal_add_4_2", 0, 0, {}], ["normal_add_5_2", 0, 0, {}]]], "name": "normal_concat_2"}, {"class_name": "Activation", "config": {"activation": "relu", "trainable": true, "name": "activation_58"}, "inbound_nodes": [[["normal_concat_1", 0, 0, {}]]], "name": "activation_58"}, {"class_name": "Activation", "config": {"activation": "relu", "trainable": true, "name": "activation_59"}, "inbound_nodes": [[["normal_concat_2", 0, 0, {}]]], "name": "activation_59"}, {"class_name": "Conv2D", "config": {"kernel_constraint": null, "kernel_initializer": {"class_name": "VarianceScaling", "config": {"distribution": "normal", "scale": 2.0, "seed": null, "mode": "fan_in"}}, "name": "adjust_conv_projection_3", "bias_regularizer": null, "bias_constraint": null, "activation": "linear", "trainable": true, "data_format": "channels_last", "padding": "same", "strides": [1, 1], "dilation_rate": [1, 1], "kernel_regularizer": null, "filters": 44, "bias_initializer": {"class_name": "Zeros", "config": {}}, "use_bias": false, "activity_regularizer": null, "kernel_size": [1, 1]}, "inbound_nodes": [[["activation_58", 0, 0, {}]]], "name": "adjust_conv_projection_3"}, {"class_name": "Conv2D", "config": {"kernel_constraint": null, "kernel_initializer": {"class_name": "VarianceScaling", "config": {"distribution": "normal", "scale": 2.0, "seed": null, "mode": "fan_in"}}, "name": "normal_conv_1_3", "bias_regularizer": null, "bias_constraint": null, "activation": "linear", "trainable": true, "data_format": "channels_last", "padding": "same", "strides": [1, 1], "dilation_rate": [1, 1], "kernel_regularizer": null, "filters": 44, "bias_initializer": {"class_name": "Zeros", "config": {}}, "use_bias": false, "activity_regularizer": null, "kernel_size": [1, 1]}, "inbound_nodes": [[["activation_59", 0, 0, {}]]], "name": "normal_conv_1_3"}, {"class_name": "BatchNormalization", "config": {"beta_constraint": null, "gamma_initializer": {"class_name": "Ones", "config": {}}, "moving_mean_initializer": {"class_name": "Zeros", "config": {}}, "name": "adjust_bn_3", "epsilon": 0.001, "trainable": true, "moving_variance_initializer": {"class_name": "Ones", "config": {}}, "beta_initializer": {"class_name": "Zeros", "config": {}}, "scale": true, "axis": -1, "gamma_constraint": null, "gamma_regularizer": null, "beta_regularizer": null, "momentum": 0.9997, "center": true}, "inbound_nodes": [[["adjust_conv_projection_3", 0, 0, {}]]], "name": "adjust_bn_3"}, {"class_name": "BatchNormalization", "config": {"beta_constraint": null, "gamma_initializer": {"class_name": "Ones", "config": {}}, "moving_mean_initializer": {"class_name": "Zeros", "config": {}}, "name": "normal_bn_1_3", "epsilon": 0.001, "trainable": true, "moving_variance_initializer": {"class_name": "Ones", "config": {}}, "beta_initializer": {"class_name": "Zeros", "config": {}}, "scale": true, "axis": -1, "gamma_constraint": null, "gamma_regularizer": null, "beta_regularizer": null, "momentum": 0.9997, "center": true}, "inbound_nodes": [[["normal_conv_1_3", 0, 0, {}]]], "name": "normal_bn_1_3"}, {"class_name": "Activation", "config": {"activation": "relu", "trainable": true, "name": "activation_60"}, "inbound_nodes": [[["normal_bn_1_3", 0, 0, {}]]], "name": "activation_60"}, {"class_name": "Activation", "config": {"activation": "relu", "trainable": true, "name": "activation_62"}, "inbound_nodes": [[["adjust_bn_3", 0, 0, {}]]], "name": "activation_62"}, {"class_name": "Activation", "config": {"activation": "relu", "trainable": true, "name": "activation_64"}, "inbound_nodes": [[["adjust_bn_3", 0, 0, {}]]], "name": "activation_64"}, {"class_name": "Activation", "config": {"activation": "relu", "trainable": true, "name": "activation_66"}, "inbound_nodes": [[["adjust_bn_3", 0, 0, {}]]], "name": "activation_66"}, {"class_name": "Activation", "config": {"activation": "relu", "trainable": true, "name": "activation_68"}, "inbound_nodes": [[["normal_bn_1_3", 0, 0, {}]]], "name": "activation_68"}, {"class_name": "SeparableConv2D", "config": {"padding": "same", "use_bias": false, "bias_regularizer": null, "pointwise_initializer": {"class_name": "VarianceScaling", "config": {"distribution": "uniform", "scale": 1.0, "seed": null, "mode": "fan_avg"}}, "bias_constraint": null, "activity_regularizer": null, "trainable": true, "pointwise_constraint": null, "data_format": "channels_last", "depthwise_initializer": {"class_name": "VarianceScaling", "config": {"distribution": "uniform", "scale": 1.0, "seed": null, "mode": "fan_avg"}}, "depthwise_constraint": null, "strides": [1, 1], "pointwise_regularizer": null, "filters": 44, "bias_initializer": {"class_name": "Zeros", "config": {}}, "depth_multiplier": 1, "dilation_rate": [1, 1], "depthwise_regularizer": null, "activation": "linear", "kernel_size": [5, 5], "name": "separable_conv_1_normal_left1_3"}, "inbound_nodes": [[["activation_60", 0, 0, {}]]], "name": "separable_conv_1_normal_left1_3"}, {"class_name": "SeparableConv2D", "config": {"padding": "same", "use_bias": false, "bias_regularizer": null, "pointwise_initializer": {"class_name": "VarianceScaling", "config": {"distribution": "uniform", "scale": 1.0, "seed": null, "mode": "fan_avg"}}, "bias_constraint": null, "activity_regularizer": null, "trainable": true, "pointwise_constraint": null, "data_format": "channels_last", "depthwise_initializer": {"class_name": "VarianceScaling", "config": {"distribution": "uniform", "scale": 1.0, "seed": null, "mode": "fan_avg"}}, "depthwise_constraint": null, "strides": [1, 1], "pointwise_regularizer": null, "filters": 44, "bias_initializer": {"class_name": "Zeros", "config": {}}, "depth_multiplier": 1, "dilation_rate": [1, 1], "depthwise_regularizer": null, "activation": "linear", "kernel_size": [3, 3], "name": "separable_conv_1_normal_right1_3"}, "inbound_nodes": [[["activation_62", 0, 0, {}]]], "name": "separable_conv_1_normal_right1_3"}, {"class_name": "SeparableConv2D", "config": {"padding": "same", "use_bias": false, "bias_regularizer": null, "pointwise_initializer": {"class_name": "VarianceScaling", "config": {"distribution": "uniform", "scale": 1.0, "seed": null, "mode": "fan_avg"}}, "bias_constraint": null, "activity_regularizer": null, "trainable": true, "pointwise_constraint": null, "data_format": "channels_last", "depthwise_initializer": {"class_name": "VarianceScaling", "config": {"distribution": "uniform", "scale": 1.0, "seed": null, "mode": "fan_avg"}}, "depthwise_constraint": null, "strides": [1, 1], "pointwise_regularizer": null, "filters": 44, "bias_initializer": {"class_name": "Zeros", "config": {}}, "depth_multiplier": 1, "dilation_rate": [1, 1], "depthwise_regularizer": null, "activation": "linear", "kernel_size": [5, 5], "name": "separable_conv_1_normal_left2_3"}, "inbound_nodes": [[["activation_64", 0, 0, {}]]], "name": "separable_conv_1_normal_left2_3"}, {"class_name": "SeparableConv2D", "config": {"padding": "same", "use_bias": false, "bias_regularizer": null, "pointwise_initializer": {"class_name": "VarianceScaling", "config": {"distribution": "uniform", "scale": 1.0, "seed": null, "mode": "fan_avg"}}, "bias_constraint": null, "activity_regularizer": null, "trainable": true, "pointwise_constraint": null, "data_format": "channels_last", "depthwise_initializer": {"class_name": "VarianceScaling", "config": {"distribution": "uniform", "scale": 1.0, "seed": null, "mode": "fan_avg"}}, "depthwise_constraint": null, "strides": [1, 1], "pointwise_regularizer": null, "filters": 44, "bias_initializer": {"class_name": "Zeros", "config": {}}, "depth_multiplier": 1, "dilation_rate": [1, 1], "depthwise_regularizer": null, "activation": "linear", "kernel_size": [3, 3], "name": "separable_conv_1_normal_right2_3"}, "inbound_nodes": [[["activation_66", 0, 0, {}]]], "name": "separable_conv_1_normal_right2_3"}, {"class_name": "SeparableConv2D", "config": {"padding": "same", "use_bias": false, "bias_regularizer": null, "pointwise_initializer": {"class_name": "VarianceScaling", "config": {"distribution": "uniform", "scale": 1.0, "seed": null, "mode": "fan_avg"}}, "bias_constraint": null, "activity_regularizer": null, "trainable": true, "pointwise_constraint": null, "data_format": "channels_last", "depthwise_initializer": {"class_name": "VarianceScaling", "config": {"distribution": "uniform", "scale": 1.0, "seed": null, "mode": "fan_avg"}}, "depthwise_constraint": null, "strides": [1, 1], "pointwise_regularizer": null, "filters": 44, "bias_initializer": {"class_name": "Zeros", "config": {}}, "depth_multiplier": 1, "dilation_rate": [1, 1], "depthwise_regularizer": null, "activation": "linear", "kernel_size": [3, 3], "name": "separable_conv_1_normal_left5_3"}, "inbound_nodes": [[["activation_68", 0, 0, {}]]], "name": "separable_conv_1_normal_left5_3"}, {"class_name": "BatchNormalization", "config": {"beta_constraint": null, "gamma_initializer": {"class_name": "Ones", "config": {}}, "moving_mean_initializer": {"class_name": "Zeros", "config": {}}, "name": "separable_conv_1_bn_normal_left1_3", "epsilon": 0.001, "trainable": true, "moving_variance_initializer": {"class_name": "Ones", "config": {}}, "beta_initializer": {"class_name": "Zeros", "config": {}}, "scale": true, "axis": -1, "gamma_constraint": null, "gamma_regularizer": null, "beta_regularizer": null, "momentum": 0.9997, "center": true}, "inbound_nodes": [[["separable_conv_1_normal_left1_3", 0, 0, {}]]], "name": "separable_conv_1_bn_normal_left1_3"}, {"class_name": "BatchNormalization", "config": {"beta_constraint": null, "gamma_initializer": {"class_name": "Ones", "config": {}}, "moving_mean_initializer": {"class_name": "Zeros", "config": {}}, "name": "separable_conv_1_bn_normal_right1_3", "epsilon": 0.001, "trainable": true, "moving_variance_initializer": {"class_name": "Ones", "config": {}}, "beta_initializer": {"class_name": "Zeros", "config": {}}, "scale": true, "axis": -1, "gamma_constraint": null, "gamma_regularizer": null, "beta_regularizer": null, "momentum": 0.9997, "center": true}, "inbound_nodes": [[["separable_conv_1_normal_right1_3", 0, 0, {}]]], "name": "separable_conv_1_bn_normal_right1_3"}, {"class_name": "BatchNormalization", "config": {"beta_constraint": null, "gamma_initializer": {"class_name": "Ones", "config": {}}, "moving_mean_initializer": {"class_name": "Zeros", "config": {}}, "name": "separable_conv_1_bn_normal_left2_3", "epsilon": 0.001, "trainable": true, "moving_variance_initializer": {"class_name": "Ones", "config": {}}, "beta_initializer": {"class_name": "Zeros", "config": {}}, "scale": true, "axis": -1, "gamma_constraint": null, "gamma_regularizer": null, "beta_regularizer": null, "momentum": 0.9997, "center": true}, "inbound_nodes": [[["separable_conv_1_normal_left2_3", 0, 0, {}]]], "name": "separable_conv_1_bn_normal_left2_3"}, {"class_name": "BatchNormalization", "config": {"beta_constraint": null, "gamma_initializer": {"class_name": "Ones", "config": {}}, "moving_mean_initializer": {"class_name": "Zeros", "config": {}}, "name": "separable_conv_1_bn_normal_right2_3", "epsilon": 0.001, "trainable": true, "moving_variance_initializer": {"class_name": "Ones", "config": {}}, "beta_initializer": {"class_name": "Zeros", "config": {}}, "scale": true, "axis": -1, "gamma_constraint": null, "gamma_regularizer": null, "beta_regularizer": null, "momentum": 0.9997, "center": true}, "inbound_nodes": [[["separable_conv_1_normal_right2_3", 0, 0, {}]]], "name": "separable_conv_1_bn_normal_right2_3"}, {"class_name": "BatchNormalization", "config": {"beta_constraint": null, "gamma_initializer": {"class_name": "Ones", "config": {}}, "moving_mean_initializer": {"class_name": "Zeros", "config": {}}, "name": "separable_conv_1_bn_normal_left5_3", "epsilon": 0.001, "trainable": true, "moving_variance_initializer": {"class_name": "Ones", "config": {}}, "beta_initializer": {"class_name": "Zeros", "config": {}}, "scale": true, "axis": -1, "gamma_constraint": null, "gamma_regularizer": null, "beta_regularizer": null, "momentum": 0.9997, "center": true}, "inbound_nodes": [[["separable_conv_1_normal_left5_3", 0, 0, {}]]], "name": "separable_conv_1_bn_normal_left5_3"}, {"class_name": "Activation", "config": {"activation": "relu", "trainable": true, "name": "activation_61"}, "inbound_nodes": [[["separable_conv_1_bn_normal_left1_3", 0, 0, {}]]], "name": "activation_61"}, {"class_name": "Activation", "config": {"activation": "relu", "trainable": true, "name": "activation_63"}, "inbound_nodes": [[["separable_conv_1_bn_normal_right1_3", 0, 0, {}]]], "name": "activation_63"}, {"class_name": "Activation", "config": {"activation": "relu", "trainable": true, "name": "activation_65"}, "inbound_nodes": [[["separable_conv_1_bn_normal_left2_3", 0, 0, {}]]], "name": "activation_65"}, {"class_name": "Activation", "config": {"activation": "relu", "trainable": true, "name": "activation_67"}, "inbound_nodes": [[["separable_conv_1_bn_normal_right2_3", 0, 0, {}]]], "name": "activation_67"}, {"class_name": "Activation", "config": {"activation": "relu", "trainable": true, "name": "activation_69"}, "inbound_nodes": [[["separable_conv_1_bn_normal_left5_3", 0, 0, {}]]], "name": "activation_69"}, {"class_name": "SeparableConv2D", "config": {"padding": "same", "use_bias": false, "bias_regularizer": null, "pointwise_initializer": {"class_name": "VarianceScaling", "config": {"distribution": "uniform", "scale": 1.0, "seed": null, "mode": "fan_avg"}}, "bias_constraint": null, "activity_regularizer": null, "trainable": true, "pointwise_constraint": null, "data_format": "channels_last", "depthwise_initializer": {"class_name": "VarianceScaling", "config": {"distribution": "uniform", "scale": 1.0, "seed": null, "mode": "fan_avg"}}, "depthwise_constraint": null, "strides": [1, 1], "pointwise_regularizer": null, "filters": 44, "bias_initializer": {"class_name": "Zeros", "config": {}}, "depth_multiplier": 1, "dilation_rate": [1, 1], "depthwise_regularizer": null, "activation": "linear", "kernel_size": [5, 5], "name": "separable_conv_2_normal_left1_3"}, "inbound_nodes": [[["activation_61", 0, 0, {}]]], "name": "separable_conv_2_normal_left1_3"}, {"class_name": "SeparableConv2D", "config": {"padding": "same", "use_bias": false, "bias_regularizer": null, "pointwise_initializer": {"class_name": "VarianceScaling", "config": {"distribution": "uniform", "scale": 1.0, "seed": null, "mode": "fan_avg"}}, "bias_constraint": null, "activity_regularizer": null, "trainable": true, "pointwise_constraint": null, "data_format": "channels_last", "depthwise_initializer": {"class_name": "VarianceScaling", "config": {"distribution": "uniform", "scale": 1.0, "seed": null, "mode": "fan_avg"}}, "depthwise_constraint": null, "strides": [1, 1], "pointwise_regularizer": null, "filters": 44, "bias_initializer": {"class_name": "Zeros", "config": {}}, "depth_multiplier": 1, "dilation_rate": [1, 1], "depthwise_regularizer": null, "activation": "linear", "kernel_size": [3, 3], "name": "separable_conv_2_normal_right1_3"}, "inbound_nodes": [[["activation_63", 0, 0, {}]]], "name": "separable_conv_2_normal_right1_3"}, {"class_name": "SeparableConv2D", "config": {"padding": "same", "use_bias": false, "bias_regularizer": null, "pointwise_initializer": {"class_name": "VarianceScaling", "config": {"distribution": "uniform", "scale": 1.0, "seed": null, "mode": "fan_avg"}}, "bias_constraint": null, "activity_regularizer": null, "trainable": true, "pointwise_constraint": null, "data_format": "channels_last", "depthwise_initializer": {"class_name": "VarianceScaling", "config": {"distribution": "uniform", "scale": 1.0, "seed": null, "mode": "fan_avg"}}, "depthwise_constraint": null, "strides": [1, 1], "pointwise_regularizer": null, "filters": 44, "bias_initializer": {"class_name": "Zeros", "config": {}}, "depth_multiplier": 1, "dilation_rate": [1, 1], "depthwise_regularizer": null, "activation": "linear", "kernel_size": [5, 5], "name": "separable_conv_2_normal_left2_3"}, "inbound_nodes": [[["activation_65", 0, 0, {}]]], "name": "separable_conv_2_normal_left2_3"}, {"class_name": "SeparableConv2D", "config": {"padding": "same", "use_bias": false, "bias_regularizer": null, "pointwise_initializer": {"class_name": "VarianceScaling", "config": {"distribution": "uniform", "scale": 1.0, "seed": null, "mode": "fan_avg"}}, "bias_constraint": null, "activity_regularizer": null, "trainable": true, "pointwise_constraint": null, "data_format": "channels_last", "depthwise_initializer": {"class_name": "VarianceScaling", "config": {"distribution": "uniform", "scale": 1.0, "seed": null, "mode": "fan_avg"}}, "depthwise_constraint": null, "strides": [1, 1], "pointwise_regularizer": null, "filters": 44, "bias_initializer": {"class_name": "Zeros", "config": {}}, "depth_multiplier": 1, "dilation_rate": [1, 1], "depthwise_regularizer": null, "activation": "linear", "kernel_size": [3, 3], "name": "separable_conv_2_normal_right2_3"}, "inbound_nodes": [[["activation_67", 0, 0, {}]]], "name": "separable_conv_2_normal_right2_3"}, {"class_name": "SeparableConv2D", "config": {"padding": "same", "use_bias": false, "bias_regularizer": null, "pointwise_initializer": {"class_name": "VarianceScaling", "config": {"distribution": "uniform", "scale": 1.0, "seed": null, "mode": "fan_avg"}}, "bias_constraint": null, "activity_regularizer": null, "trainable": true, "pointwise_constraint": null, "data_format": "channels_last", "depthwise_initializer": {"class_name": "VarianceScaling", "config": {"distribution": "uniform", "scale": 1.0, "seed": null, "mode": "fan_avg"}}, "depthwise_constraint": null, "strides": [1, 1], "pointwise_regularizer": null, "filters": 44, "bias_initializer": {"class_name": "Zeros", "config": {}}, "depth_multiplier": 1, "dilation_rate": [1, 1], "depthwise_regularizer": null, "activation": "linear", "kernel_size": [3, 3], "name": "separable_conv_2_normal_left5_3"}, "inbound_nodes": [[["activation_69", 0, 0, {}]]], "name": "separable_conv_2_normal_left5_3"}, {"class_name": "BatchNormalization", "config": {"beta_constraint": null, "gamma_initializer": {"class_name": "Ones", "config": {}}, "moving_mean_initializer": {"class_name": "Zeros", "config": {}}, "name": "separable_conv_2_bn_normal_left1_3", "epsilon": 0.001, "trainable": true, "moving_variance_initializer": {"class_name": "Ones", "config": {}}, "beta_initializer": {"class_name": "Zeros", "config": {}}, "scale": true, "axis": -1, "gamma_constraint": null, "gamma_regularizer": null, "beta_regularizer": null, "momentum": 0.9997, "center": true}, "inbound_nodes": [[["separable_conv_2_normal_left1_3", 0, 0, {}]]], "name": "separable_conv_2_bn_normal_left1_3"}, {"class_name": "BatchNormalization", "config": {"beta_constraint": null, "gamma_initializer": {"class_name": "Ones", "config": {}}, "moving_mean_initializer": {"class_name": "Zeros", "config": {}}, "name": "separable_conv_2_bn_normal_right1_3", "epsilon": 0.001, "trainable": true, "moving_variance_initializer": {"class_name": "Ones", "config": {}}, "beta_initializer": {"class_name": "Zeros", "config": {}}, "scale": true, "axis": -1, "gamma_constraint": null, "gamma_regularizer": null, "beta_regularizer": null, "momentum": 0.9997, "center": true}, "inbound_nodes": [[["separable_conv_2_normal_right1_3", 0, 0, {}]]], "name": "separable_conv_2_bn_normal_right1_3"}, {"class_name": "BatchNormalization", "config": {"beta_constraint": null, "gamma_initializer": {"class_name": "Ones", "config": {}}, "moving_mean_initializer": {"class_name": "Zeros", "config": {}}, "name": "separable_conv_2_bn_normal_left2_3", "epsilon": 0.001, "trainable": true, "moving_variance_initializer": {"class_name": "Ones", "config": {}}, "beta_initializer": {"class_name": "Zeros", "config": {}}, "scale": true, "axis": -1, "gamma_constraint": null, "gamma_regularizer": null, "beta_regularizer": null, "momentum": 0.9997, "center": true}, "inbound_nodes": [[["separable_conv_2_normal_left2_3", 0, 0, {}]]], "name": "separable_conv_2_bn_normal_left2_3"}, {"class_name": "BatchNormalization", "config": {"beta_constraint": null, "gamma_initializer": {"class_name": "Ones", "config": {}}, "moving_mean_initializer": {"class_name": "Zeros", "config": {}}, "name": "separable_conv_2_bn_normal_right2_3", "epsilon": 0.001, "trainable": true, "moving_variance_initializer": {"class_name": "Ones", "config": {}}, "beta_initializer": {"class_name": "Zeros", "config": {}}, "scale": true, "axis": -1, "gamma_constraint": null, "gamma_regularizer": null, "beta_regularizer": null, "momentum": 0.9997, "center": true}, "inbound_nodes": [[["separable_conv_2_normal_right2_3", 0, 0, {}]]], "name": "separable_conv_2_bn_normal_right2_3"}, {"class_name": "AveragePooling2D", "config": {"name": "normal_left3_3", "trainable": true, "data_format": "channels_last", "pool_size": [3, 3], "padding": "same", "strides": [1, 1]}, "inbound_nodes": [[["normal_bn_1_3", 0, 0, {}]]], "name": "normal_left3_3"}, {"class_name": "AveragePooling2D", "config": {"name": "normal_left4_3", "trainable": true, "data_format": "channels_last", "pool_size": [3, 3], "padding": "same", "strides": [1, 1]}, "inbound_nodes": [[["adjust_bn_3", 0, 0, {}]]], "name": "normal_left4_3"}, {"class_name": "AveragePooling2D", "config": {"name": "normal_right4_3", "trainable": true, "data_format": "channels_last", "pool_size": [3, 3], "padding": "same", "strides": [1, 1]}, "inbound_nodes": [[["adjust_bn_3", 0, 0, {}]]], "name": "normal_right4_3"}, {"class_name": "BatchNormalization", "config": {"beta_constraint": null, "gamma_initializer": {"class_name": "Ones", "config": {}}, "moving_mean_initializer": {"class_name": "Zeros", "config": {}}, "name": "separable_conv_2_bn_normal_left5_3", "epsilon": 0.001, "trainable": true, "moving_variance_initializer": {"class_name": "Ones", "config": {}}, "beta_initializer": {"class_name": "Zeros", "config": {}}, "scale": true, "axis": -1, "gamma_constraint": null, "gamma_regularizer": null, "beta_regularizer": null, "momentum": 0.9997, "center": true}, "inbound_nodes": [[["separable_conv_2_normal_left5_3", 0, 0, {}]]], "name": "separable_conv_2_bn_normal_left5_3"}, {"class_name": "Add", "config": {"trainable": true, "name": "normal_add_1_3"}, "inbound_nodes": [[["separable_conv_2_bn_normal_left1_3", 0, 0, {}], ["separable_conv_2_bn_normal_right1_3", 0, 0, {}]]], "name": "normal_add_1_3"}, {"class_name": "Add", "config": {"trainable": true, "name": "normal_add_2_3"}, "inbound_nodes": [[["separable_conv_2_bn_normal_left2_3", 0, 0, {}], ["separable_conv_2_bn_normal_right2_3", 0, 0, {}]]], "name": "normal_add_2_3"}, {"class_name": "Add", "config": {"trainable": true, "name": "normal_add_3_3"}, "inbound_nodes": [[["normal_left3_3", 0, 0, {}], ["adjust_bn_3", 0, 0, {}]]], "name": "normal_add_3_3"}, {"class_name": "Add", "config": {"trainable": true, "name": "normal_add_4_3"}, "inbound_nodes": [[["normal_left4_3", 0, 0, {}], ["normal_right4_3", 0, 0, {}]]], "name": "normal_add_4_3"}, {"class_name": "Add", "config": {"trainable": true, "name": "normal_add_5_3"}, "inbound_nodes": [[["separable_conv_2_bn_normal_left5_3", 0, 0, {}], ["normal_bn_1_3", 0, 0, {}]]], "name": "normal_add_5_3"}, {"class_name": "Concatenate", "config": {"trainable": true, "name": "normal_concat_3", "axis": -1}, "inbound_nodes": [[["adjust_bn_3", 0, 0, {}], ["normal_add_1_3", 0, 0, {}], ["normal_add_2_3", 0, 0, {}], ["normal_add_3_3", 0, 0, {}], ["normal_add_4_3", 0, 0, {}], ["normal_add_5_3", 0, 0, {}]]], "name": "normal_concat_3"}, {"class_name": "Activation", "config": {"activation": "relu", "trainable": true, "name": "activation_71"}, "inbound_nodes": [[["normal_concat_3", 0, 0, {}]]], "name": "activation_71"}, {"class_name": "Activation", "config": {"activation": "relu", "trainable": true, "name": "activation_70"}, "inbound_nodes": [[["normal_concat_2", 0, 0, {}]]], "name": "activation_70"}, {"class_name": "Conv2D", "config": {"kernel_constraint": null, "kernel_initializer": {"class_name": "VarianceScaling", "config": {"distribution": "normal", "scale": 2.0, "seed": null, "mode": "fan_in"}}, "name": "reduction_conv_1_reduce_4", "bias_regularizer": null, "bias_constraint": null, "activation": "linear", "trainable": true, "data_format": "channels_last", "padding": "same", "strides": [1, 1], "dilation_rate": [1, 1], "kernel_regularizer": null, "filters": 88, "bias_initializer": {"class_name": "Zeros", "config": {}}, "use_bias": false, "activity_regularizer": null, "kernel_size": [1, 1]}, "inbound_nodes": [[["activation_71", 0, 0, {}]]], "name": "reduction_conv_1_reduce_4"}, {"class_name": "Conv2D", "config": {"kernel_constraint": null, "kernel_initializer": {"class_name": "VarianceScaling", "config": {"distribution": "normal", "scale": 2.0, "seed": null, "mode": "fan_in"}}, "name": "adjust_conv_projection_reduce_4", "bias_regularizer": null, "bias_constraint": null, "activation": "linear", "trainable": true, "data_format": "channels_last", "padding": "same", "strides": [1, 1], "dilation_rate": [1, 1], "kernel_regularizer": null, "filters": 88, "bias_initializer": {"class_name": "Zeros", "config": {}}, "use_bias": false, "activity_regularizer": null, "kernel_size": [1, 1]}, "inbound_nodes": [[["activation_70", 0, 0, {}]]], "name": "adjust_conv_projection_reduce_4"}, {"class_name": "BatchNormalization", "config": {"beta_constraint": null, "gamma_initializer": {"class_name": "Ones", "config": {}}, "moving_mean_initializer": {"class_name": "Zeros", "config": {}}, "name": "reduction_bn_1_reduce_4", "epsilon": 0.001, "trainable": true, "moving_variance_initializer": {"class_name": "Ones", "config": {}}, "beta_initializer": {"class_name": "Zeros", "config": {}}, "scale": true, "axis": -1, "gamma_constraint": null, "gamma_regularizer": null, "beta_regularizer": null, "momentum": 0.9997, "center": true}, "inbound_nodes": [[["reduction_conv_1_reduce_4", 0, 0, {}]]], "name": "reduction_bn_1_reduce_4"}, {"class_name": "BatchNormalization", "config": {"beta_constraint": null, "gamma_initializer": {"class_name": "Ones", "config": {}}, "moving_mean_initializer": {"class_name": "Zeros", "config": {}}, "name": "adjust_bn_reduce_4", "epsilon": 0.001, "trainable": true, "moving_variance_initializer": {"class_name": "Ones", "config": {}}, "beta_initializer": {"class_name": "Zeros", "config": {}}, "scale": true, "axis": -1, "gamma_constraint": null, "gamma_regularizer": null, "beta_regularizer": null, "momentum": 0.9997, "center": true}, "inbound_nodes": [[["adjust_conv_projection_reduce_4", 0, 0, {}]]], "name": "adjust_bn_reduce_4"}, {"class_name": "Activation", "config": {"activation": "relu", "trainable": true, "name": "activation_72"}, "inbound_nodes": [[["reduction_bn_1_reduce_4", 0, 0, {}]]], "name": "activation_72"}, {"class_name": "Activation", "config": {"activation": "relu", "trainable": true, "name": "activation_74"}, "inbound_nodes": [[["adjust_bn_reduce_4", 0, 0, {}]]], "name": "activation_74"}, {"class_name": "SeparableConv2D", "config": {"padding": "same", "use_bias": false, "bias_regularizer": null, "pointwise_initializer": {"class_name": "VarianceScaling", "config": {"distribution": "uniform", "scale": 1.0, "seed": null, "mode": "fan_avg"}}, "bias_constraint": null, "activity_regularizer": null, "trainable": true, "pointwise_constraint": null, "data_format": "channels_last", "depthwise_initializer": {"class_name": "VarianceScaling", "config": {"distribution": "uniform", "scale": 1.0, "seed": null, "mode": "fan_avg"}}, "depthwise_constraint": null, "strides": [2, 2], "pointwise_regularizer": null, "filters": 88, "bias_initializer": {"class_name": "Zeros", "config": {}}, "depth_multiplier": 1, "dilation_rate": [1, 1], "depthwise_regularizer": null, "activation": "linear", "kernel_size": [5, 5], "name": "separable_conv_1_reduction_left1_reduce_4"}, "inbound_nodes": [[["activation_72", 0, 0, {}]]], "name": "separable_conv_1_reduction_left1_reduce_4"}, {"class_name": "SeparableConv2D", "config": {"padding": "same", "use_bias": false, "bias_regularizer": null, "pointwise_initializer": {"class_name": "VarianceScaling", "config": {"distribution": "uniform", "scale": 1.0, "seed": null, "mode": "fan_avg…
ass_name": "BatchNormalization", "config": {"beta_constraint": null, "gamma_initializer": {"class_name": "Ones", "config": {}}, "moving_mean_initializer": {"class_name": "Zeros", "config": {}}, "name": "separable_conv_2_bn_normal_left5_10", "epsilon": 0.001, "trainable": true, "moving_variance_initializer": {"class_name": "Ones", "config": {}}, "beta_initializer": {"class_name": "Zeros", "config": {}}, "scale": true, "axis": -1, "gamma_constraint": null, "gamma_regularizer": null, "beta_regularizer": null, "momentum": 0.9997, "center": true}, "inbound_nodes": [[["separable_conv_2_normal_left5_10", 0, 0, {}]]], "name": "separable_conv_2_bn_normal_left5_10"}, {"class_name": "Add", "config": {"trainable": true, "name": "normal_add_1_10"}, "inbound_nodes": [[["separable_conv_2_bn_normal_left1_10", 0, 0, {}], ["separable_conv_2_bn_normal_right1_10", 0, 0, {}]]], "name": "normal_add_1_10"}, {"class_name": "Add", "config": {"trainable": true, "name": "normal_add_2_10"}, "inbound_nodes": [[["separable_conv_2_bn_normal_left2_10", 0, 0, {}], ["separable_conv_2_bn_normal_right2_10", 0, 0, {}]]], "name": "normal_add_2_10"}, {"class_name": "Add", "config": {"trainable": true, "name": "normal_add_3_10"}, "inbound_nodes": [[["normal_left3_10", 0, 0, {}], ["adjust_bn_10", 0, 0, {}]]], "name": "normal_add_3_10"}, {"class_name": "Add", "config": {"trainable": true, "name": "normal_add_4_10"}, "inbound_nodes": [[["normal_left4_10", 0, 0, {}], ["normal_right4_10", 0, 0, {}]]], "name": "normal_add_4_10"}, {"class_name": "Add", "config": {"trainable": true, "name": "normal_add_5_10"}, "inbound_nodes": [[["separable_conv_2_bn_normal_left5_10", 0, 0, {}], ["normal_bn_1_10", 0, 0, {}]]], "name": "normal_add_5_10"}, {"class_name": "Concatenate", "config": {"trainable": true, "name": "normal_concat_10", "axis": -1}, "inbound_nodes": [[["adjust_bn_10", 0, 0, {}], ["normal_add_1_10", 0, 0, {}], ["normal_add_2_10", 0, 0, {}], ["normal_add_3_10", 0, 0, {}], ["normal_add_4_10", 0, 0, {}], ["normal_add_5_10", 0, 0, {}]]], "name": "normal_concat_10"}, {"class_name": "Activation", "config": {"activation": "relu", "trainable": true, "name": "activation_164"}, "inbound_nodes": [[["normal_concat_9", 0, 0, {}]]], "name": "activation_164"}, {"class_name": "Activation", "config": {"activation": "relu", "trainable": true, "name": "activation_165"}, "inbound_nodes": [[["normal_concat_10", 0, 0, {}]]], "name": "activation_165"}, {"class_name": "Conv2D", "config": {"kernel_constraint": null, "kernel_initializer": {"class_name": "VarianceScaling", "config": {"distribution": "normal", "scale": 2.0, "seed": null, "mode": "fan_in"}}, "name": "adjust_conv_projection_11", "bias_regularizer": null, "bias_constraint": null, "activation": "linear", "trainable": true, "data_format": "channels_last", "padding": "same", "strides": [1, 1], "dilation_rate": [1, 1], "kernel_regularizer": null, "filters": 176, "bias_initializer": {"class_name": "Zeros", "config": {}}, "use_bias": false, "activity_regularizer": null, "kernel_size": [1, 1]}, "inbound_nodes": [[["activation_164", 0, 0, {}]]], "name": "adjust_conv_projection_11"}, {"class_name": "Conv2D", "config": {"kernel_constraint": null, "kernel_initializer": {"class_name": "VarianceScaling", "config": {"distribution": "normal", "scale": 2.0, "seed": null, "mode": "fan_in"}}, "name": "normal_conv_1_11", "bias_regularizer": null, "bias_constraint": null, "activation": "linear", "trainable": true, "data_format": "channels_last", "padding": "same", "strides": [1, 1], "dilation_rate": [1, 1], "kernel_regularizer": null, "filters": 176, "bias_initializer": {"class_name": "Zeros", "config": {}}, "use_bias": false, "activity_regularizer": null, "kernel_size": [1, 1]}, "inbound_nodes": [[["activation_165", 0, 0, {}]]], "name": "normal_conv_1_11"}, {"class_name": "BatchNormalization", "config": {"beta_constraint": null, "gamma_initializer": {"class_name": "Ones", "config": {}}, "moving_mean_initializer": {"class_name": "Zeros", "config": {}}, "name": "adjust_bn_11", "epsilon": 0.001, "trainable": true, "moving_variance_initializer": {"class_name": "Ones", "config": {}}, "beta_initializer": {"class_name": "Zeros", "config": {}}, "scale": true, "axis": -1, "gamma_constraint": null, "gamma_regularizer": null, "beta_regularizer": null, "momentum": 0.9997, "center": true}, "inbound_nodes": [[["adjust_conv_projection_11", 0, 0, {}]]], "name": "adjust_bn_11"}, {"class_name": "BatchNormalization", "config": {"beta_constraint": null, "gamma_initializer": {"class_name": "Ones", "config": {}}, "moving_mean_initializer": {"class_name": "Zeros", "config": {}}, "name": "normal_bn_1_11", "epsilon": 0.001, "trainable": true, "moving_variance_initializer": {"class_name": "Ones", "config": {}}, "beta_initializer": {"class_name": "Zeros", "config": {}}, "scale": true, "axis": -1, "gamma_constraint": null, "gamma_regularizer": null, "beta_regularizer": null, "momentum": 0.9997, "center": true}, "inbound_nodes": [[["normal_conv_1_11", 0, 0, {}]]], "name": "normal_bn_1_11"}, {"class_name": "Activation", "config": {"activation": "relu", "trainable": true, "name": "activation_166"}, "inbound_nodes": [[["normal_bn_1_11", 0, 0, {}]]], "name": "activation_166"}, {"class_name": "Activation", "config": {"activation": "relu", "trainable": true, "name": "activation_168"}, "inbound_nodes": [[["adjust_bn_11", 0, 0, {}]]], "name": "activation_168"}, {"class_name": "Activation", "config": {"activation": "relu", "trainable": true, "name": "activation_170"}, "inbound_nodes": [[["adjust_bn_11", 0, 0, {}]]], "name": "activation_170"}, {"class_name": "Activation", "config": {"activation": "relu", "trainable": true, "name": "activation_172"}, "inbound_nodes": [[["adjust_bn_11", 0, 0, {}]]], "name": "activation_172"}, {"class_name": "Activation", "config": {"activation": "relu", "trainable": true, "name": "activation_174"}, "inbound_nodes": [[["normal_bn_1_11", 0, 0, {}]]], "name": "activation_174"}, {"class_name": "SeparableConv2D", "config": {"padding": "same", "use_bias": false, "bias_regularizer": null, "pointwise_initializer": {"class_name": "VarianceScaling", "config": {"distribution": "uniform", "scale": 1.0, "seed": null, "mode": "fan_avg"}}, "bias_constraint": null, "activity_regularizer": null, "trainable": true, "pointwise_constraint": null, "data_format": "channels_last", "depthwise_initializer": {"class_name": "VarianceScaling", "config": {"distribution": "uniform", "scale": 1.0, "seed": null, "mode": "fan_avg"}}, "depthwise_constraint": null, "strides": [1, 1], "pointwise_regularizer": null, "filters": 176, "bias_initializer": {"class_name": "Zeros", "config": {}}, "depth_multiplier": 1, "dilation_rate": [1, 1], "depthwise_regularizer": null, "activation": "linear", "kernel_size": [5, 5], "name": "separable_conv_1_normal_left1_11"}, "inbound_nodes": [[["activation_166", 0, 0, {}]]], "name": "separable_conv_1_normal_left1_11"}, {"class_name": "SeparableConv2D", "config": {"padding": "same", "use_bias": false, "bias_regularizer": null, "pointwise_initializer": {"class_name": "VarianceScaling", "config": {"distribution": "uniform", "scale": 1.0, "seed": null, "mode": "fan_avg"}}, "bias_constraint": null, "activity_regularizer": null, "trainable": true, "pointwise_constraint": null, "data_format": "channels_last", "depthwise_initializer": {"class_name": "VarianceScaling", "config": {"distribution": "uniform", "scale": 1.0, "seed": null, "mode": "fan_avg"}}, "depthwise_constraint": null, "strides": [1, 1], "pointwise_regularizer": null, "filters": 176, "bias_initializer": {"class_name": "Zeros", "config": {}}, "depth_multiplier": 1, "dilation_rate": [1, 1], "depthwise_regularizer": null, "activation": "linear", "kernel_size": [3, 3], "name": "separable_conv_1_normal_right1_11"}, "inbound_nodes": [[["activation_168", 0, 0, {}]]], "name": "separable_conv_1_normal_right1_11"}, {"class_name": "SeparableConv2D", "config": {"padding": "same", "use_bias": false, "bias_regularizer": null, "pointwise_initializer": {"class_name": "VarianceScaling", "config": {"distribution": "uniform", "scale": 1.0, "seed": null, "mode": "fan_avg"}}, "bias_constraint": null, "activity_regularizer": null, "trainable": true, "pointwise_constraint": null, "data_format": "channels_last", "depthwise_initializer": {"class_name": "VarianceScaling", "config": {"distribution": "uniform", "scale": 1.0, "seed": null, "mode": "fan_avg"}}, "depthwise_constraint": null, "strides": [1, 1], "pointwise_regularizer": null, "filters": 176, "bias_initializer": {"class_name": "Zeros", "config": {}}, "depth_multiplier": 1, "dilation_rate": [1, 1], "depthwise_regularizer": null, "activation": "linear", "kernel_size": [5, 5], "name": "separable_conv_1_normal_left2_11"}, "inbound_nodes": [[["activation_170", 0, 0, {}]]], "name": "separable_conv_1_normal_left2_11"}, {"class_name": "SeparableConv2D", "config": {"padding": "same", "use_bias": false, "bias_regularizer": null, "pointwise_initializer": {"class_name": "VarianceScaling", "config": {"distribution": "uniform", "scale": 1.0, "seed": null, "mode": "fan_avg"}}, "bias_constraint": null, "activity_regularizer": null, "trainable": true, "pointwise_constraint": null, "data_format": "channels_last", "depthwise_initializer": {"class_name": "VarianceScaling", "config": {"distribution": "uniform", "scale": 1.0, "seed": null, "mode": "fan_avg"}}, "depthwise_constraint": null, "strides": [1, 1], "pointwise_regularizer": null, "filters": 176, "bias_initializer": {"class_name": "Zeros", "config": {}}, "depth_multiplier": 1, "dilation_rate": [1, 1], "depthwise_regularizer": null, "activation": "linear", "kernel_size": [3, 3], "name": "separable_conv_1_normal_right2_11"}, "inbound_nodes": [[["activation_172", 0, 0, {}]]], "name": "separable_conv_1_normal_right2_11"}, {"class_name": "SeparableConv2D", "config": {"padding": "same", "use_bias": false, "bias_regularizer": null, "pointwise_initializer": {"class_name": "VarianceScaling", "config": {"distribution": "uniform", "scale": 1.0, "seed": null, "mode": "fan_avg"}}, "bias_constraint": null, "activity_regularizer": null, "trainable": true, "pointwise_constraint": null, "data_format": "channels_last", "depthwise_initializer": {"class_name": "VarianceScaling", "config": {"distribution": "uniform", "scale": 1.0, "seed": null, "mode": "fan_avg"}}, "depthwise_constraint": null, "strides": [1, 1], "pointwise_regularizer": null, "filters": 176, "bias_initializer": {"class_name": "Zeros", "config": {}}, "depth_multiplier": 1, "dilation_rate": [1, 1], "depthwise_regularizer": null, "activation": "linear", "kernel_size": [3, 3], "name": "separable_conv_1_normal_left5_11"}, "inbound_nodes": [[["activation_174", 0, 0, {}]]], "name": "separable_conv_1_normal_left5_11"}, {"class_name": "BatchNormalization", "config": {"beta_constraint": null, "gamma_initializer": {"class_name": "Ones", "config": {}}, "moving_mean_initializer": {"class_name": "Zeros", "config": {}}, "name": "separable_conv_1_bn_normal_left1_11", "epsilon": 0.001, "trainable": true, "moving_variance_initializer": {"class_name": "Ones", "config": {}}, "beta_initializer": {"class_name": "Zeros", "config": {}}, "scale": true, "axis": -1, "gamma_constraint": null, "gamma_regularizer": null, "beta_regularizer": null, "momentum": 0.9997, "center": true}, "inbound_nodes": [[["separable_conv_1_normal_left1_11", 0, 0, {}]]], "name": "separable_conv_1_bn_normal_left1_11"}, {"class_name": "BatchNormalization", "config": {"beta_constraint": null, "gamma_initializer": {"class_name": "Ones", "config": {}}, "moving_mean_initializer": {"class_name": "Zeros", "config": {}}, "name": "separable_conv_1_bn_normal_right1_11", "epsilon": 0.001, "trainable": true, "moving_variance_initializer": {"class_name": "Ones", "config": {}}, "beta_initializer": {"class_name": "Zeros", "config": {}}, "scale": true, "axis": -1, "gamma_constraint": null, "gamma_regularizer": null, "beta_regularizer": null, "momentum": 0.9997, "center": true}, "inbound_nodes": [[["separable_conv_1_normal_right1_11", 0, 0, {}]]], "name": "separable_conv_1_bn_normal_right1_11"}, {"class_name": "BatchNormalization", "config": {"beta_constraint": null, "gamma_initializer": {"class_name": "Ones", "config": {}}, "moving_mean_initializer": {"class_name": "Zeros", "config": {}}, "name": "separable_conv_1_bn_normal_left2_11", "epsilon": 0.001, "trainable": true, "moving_variance_initializer": {"class_name": "Ones", "config": {}}, "beta_initializer": {"class_name": "Zeros", "config": {}}, "scale": true, "axis": -1, "gamma_constraint": null, "gamma_regularizer": null, "beta_regularizer": null, "momentum": 0.9997, "center": true}, "inbound_nodes": [[["separable_conv_1_normal_left2_11", 0, 0, {}]]], "name": "separable_conv_1_bn_normal_left2_11"}, {"class_name": "BatchNormalization", "config": {"beta_constraint": null, "gamma_initializer": {"class_name": "Ones", "config": {}}, "moving_mean_initializer": {"class_name": "Zeros", "config": {}}, "name": "separable_conv_1_bn_normal_right2_11", "epsilon": 0.001, "trainable": true, "moving_variance_initializer": {"class_name": "Ones", "config": {}}, "beta_initializer": {"class_name": "Zeros", "config": {}}, "scale": true, "axis": -1, "gamma_constraint": null, "gamma_regularizer": null, "beta_regularizer": null, "momentum": 0.9997, "center": true}, "inbound_nodes": [[["separable_conv_1_normal_right2_11", 0, 0, {}]]], "name": "separable_conv_1_bn_normal_right2_11"}, {"class_name": "BatchNormalization", "config": {"beta_constraint": null, "gamma_initializer": {"class_name": "Ones", "config": {}}, "moving_mean_initializer": {"class_name": "Zeros", "config": {}}, "name": "separable_conv_1_bn_normal_left5_11", "epsilon": 0.001, "trainable": true, "moving_variance_initializer": {"class_name": "Ones", "config": {}}, "beta_initializer": {"class_name": "Zeros", "config": {}}, "scale": true, "axis": -1, "gamma_constraint": null, "gamma_regularizer": null, "beta_regularizer": null, "momentum": 0.9997, "center": true}, "inbound_nodes": [[["separable_conv_1_normal_left5_11", 0, 0, {}]]], "name": "separable_conv_1_bn_normal_left5_11"}, {"class_name": "Activation", "config": {"activation": "relu", "trainable": true, "name": "activation_167"}, "inbound_nodes": [[["separable_conv_1_bn_normal_left1_11", 0, 0, {}]]], "name": "activation_167"}, {"class_name": "Activation", "config": {"activation": "relu", "trainable": true, "name": "activation_169"}, "inbound_nodes": [[["separable_conv_1_bn_normal_right1_11", 0, 0, {}]]], "name": "activation_169"}, {"class_name": "Activation", "config": {"activation": "relu", "trainable": true, "name": "activation_171"}, "inbound_nodes": [[["separable_conv_1_bn_normal_left2_11", 0, 0, {}]]], "name": "activation_171"}, {"class_name": "Activation", "config": {"activation": "relu", "trainable": true, "name": "activation_173"}, "inbound_nodes": [[["separable_conv_1_bn_normal_right2_11", 0, 0, {}]]], "name": "activation_173"}, {"class_name": "Activation", "config": {"activation": "relu", "trainable": true, "name": "activation_175"}, "inbound_nodes": [[["separable_conv_1_bn_normal_left5_11", 0, 0, {}]]], "name": "activation_175"}, {"class_name": "SeparableConv2D", "config": {"padding": "same", "use_bias": false, "bias_regularizer": null, "pointwise_initializer": {"class_name": "VarianceScaling", "config": {"distribution": "uniform", "scale": 1.0, "seed": null, "mode": "fan_avg"}}, "bias_constraint": null, "activity_regularizer": null, "trainable": true, "pointwise_constraint": null, "data_format": "channels_last", "depthwise_initializer": {"class_name": "VarianceScaling", "config": {"distribution": "uniform", "scale": 1.0, "seed": null, "mode": "fan_avg"}}, "depthwise_constraint": null, "strides": [1, 1], "pointwise_regularizer": null, "filters": 176, "bias_initializer": {"class_name": "Zeros", "config": {}}, "depth_multiplier": 1, "dilation_rate": [1, 1], "depthwise_regularizer": null, "activation": "linear", "kernel_size": [5, 5], "name": "separable_conv_2_normal_left1_11"}, "inbound_nodes": [[["activation_167", 0, 0, {}]]], "name": "separable_conv_2_normal_left1_11"}, {"class_name": "SeparableConv2D", "config": {"padding": "same", "use_bias": false, "bias_regularizer": null, "pointwise_initializer": {"class_name": "VarianceScaling", "config": {"distribution": "uniform", "scale": 1.0, "seed": null, "mode": "fan_avg"}}, "bias_constraint": null, "activity_regularizer": null, "trainable": true, "pointwise_constraint": null, "data_format": "channels_last", "depthwise_initializer": {"class_name": "VarianceScaling", "config": {"distribution": "uniform", "scale": 1.0, "seed": null, "mode": "fan_avg"}}, "depthwise_constraint": null, "strides": [1, 1], "pointwise_regularizer": null, "filters": 176, "bias_initializer": {"class_name": "Zeros", "config": {}}, "depth_multiplier": 1, "dilation_rate": [1, 1], "depthwise_regularizer": null, "activation": "linear", "kernel_size": [3, 3], "name": "separable_conv_2_normal_right1_11"}, "inbound_nodes": [[["activation_169", 0, 0, {}]]], "name": "separable_conv_2_normal_right1_11"}, {"class_name": "SeparableConv2D", "config": {"padding": "same", "use_bias": false, "bias_regularizer": null, "pointwise_initializer": {"class_name": "VarianceScaling", "config": {"distribution": "uniform", "scale": 1.0, "seed": null, "mode": "fan_avg"}}, "bias_constraint": null, "activity_regularizer": null, "trainable": true, "pointwise_constraint": null, "data_format": "channels_last", "depthwise_initializer": {"class_name": "VarianceScaling", "config": {"distribution": "uniform", "scale": 1.0, "seed": null, "mode": "fan_avg"}}, "depthwise_constraint": null, "strides": [1, 1], "pointwise_regularizer": null, "filters": 176, "bias_initializer": {"class_name": "Zeros", "config": {}}, "depth_multiplier": 1, "dilation_rate": [1, 1], "depthwise_regularizer": null, "activation": "linear", "kernel_size": [5, 5], "name": "separable_conv_2_normal_left2_11"}, "inbound_nodes": [[["activation_171", 0, 0, {}]]], "name": "separable_conv_2_normal_left2_11"}, {"class_name": "SeparableConv2D", "config": {"padding": "same", "use_bias": false, "bias_regularizer": null, "pointwise_initializer": {"class_name": "VarianceScaling", "config": {"distribution": "uniform", "scale": 1.0, "seed": null, "mode": "fan_avg"}}, "bias_constraint": null, "activity_regularizer": null, "trainable": true, "pointwise_constraint": null, "data_format": "channels_last", "depthwise_initializer": {"class_name": "VarianceScaling", "config": {"distribution": "uniform", "scale": 1.0, "seed": null, "mode": "fan_avg"}}, "depthwise_constraint": null, "strides": [1, 1], "pointwise_regularizer": null, "filters": 176, "bias_initializer": {"class_name": "Zeros", "config": {}}, "depth_multiplier": 1, "dilation_rate": [1, 1], "depthwise_regularizer": null, "activation": "linear", "kernel_size": [3, 3], "name": "separable_conv_2_normal_right2_11"}, "inbound_nodes": [[["activation_173", 0, 0, {}]]], "name": "separable_conv_2_normal_right2_11"}, {"class_name": "SeparableConv2D", "config": {"padding": "same", "use_bias": false, "bias_regularizer": null, "pointwise_initializer": {"class_name": "VarianceScaling", "config": {"distribution": "uniform", "scale": 1.0, "seed": null, "mode": "fan_avg"}}, "bias_constraint": null, "activity_regularizer": null, "trainable": true, "pointwise_constraint": null, "data_format": "channels_last", "depthwise_initializer": {"class_name": "VarianceScaling", "config": {"distribution": "uniform", "scale": 1.0, "seed": null, "mode": "fan_avg"}}, "depthwise_constraint": null, "strides": [1, 1], "pointwise_regularizer": null, "filters": 176, "bias_initializer": {"class_name": "Zeros", "config": {}}, "depth_multiplier": 1, "dilation_rate": [1, 1], "depthwise_regularizer": null, "activation": "linear", "kernel_size": [3, 3], "name": "separable_conv_2_normal_left5_11"}, "inbound_nodes": [[["activation_175", 0, 0, {}]]], "name": "separable_conv_2_normal_left5_11"}, {"class_name": "BatchNormalization", "config": {"beta_constraint": null, "gamma_initializer": {"class_name": "Ones", "config": {}}, "moving_mean_initializer": {"class_name": "Zeros", "config": {}}, "name": "separable_conv_2_bn_normal_left1_11", "epsilon": 0.001, "trainable": true, "moving_variance_initializer": {"class_name": "Ones", "config": {}}, "beta_initializer": {"class_name": "Zeros", "config": {}}, "scale": true, "axis": -1, "gamma_constraint": null, "gamma_regularizer": null, "beta_regularizer": null, "momentum": 0.9997, "center": true}, "inbound_nodes": [[["separable_conv_2_normal_left1_11", 0, 0, {}]]], "name": "separable_conv_2_bn_normal_left1_11"}, {"class_name": "BatchNormalization", "config": {"beta_constraint": null, "gamma_initializer": {"class_name": "Ones", "config": {}}, "moving_mean_initializer": {"class_name": "Zeros", "config": {}}, "name": "separable_conv_2_bn_normal_right1_11", "epsilon": 0.001, "trainable": true, "moving_variance_initializer": {"class_name": "Ones", "config": {}}, "beta_initializer": {"class_name": "Zeros", "config": {}}, "scale": true, "axis": -1, "gamma_constraint": null, "gamma_regularizer": null, "beta_regularizer": null, "momentum": 0.9997, "center": true}, "inbound_nodes": [[["separable_conv_2_normal_right1_11", 0, 0, {}]]], "name": "separable_conv_2_bn_normal_right1_11"}, {"class_name": "BatchNormalization", "config": {"beta_constraint": null, "gamma_initializer": {"class_name": "Ones", "config": {}}, "moving_mean_initializer": {"class_name": "Zeros", "config": {}}, "name": "separable_conv_2_bn_normal_left2_11", "epsilon": 0.001, "trainable": true, "moving_variance_initializer": {"class_name": "Ones", "config": {}}, "beta_initializer": {"class_name": "Zeros", "config": {}}, "scale": true, "axis": -1, "gamma_constraint": null, "gamma_regularizer": null, "beta_regularizer": null, "momentum": 0.9997, "center": true}, "inbound_nodes": [[["separable_conv_2_normal_left2_11", 0, 0, {}]]], "name": "separable_conv_2_bn_normal_left2_11"}, {"class_name": "BatchNormalization", "config": {"beta_constraint": null, "gamma_initializer": {"class_name": "Ones", "config": {}}, "moving_mean_initializer": {"class_name": "Zeros", "config": {}}, "name": "separable_conv_2_bn_normal_right2_11", "epsilon": 0.001, "trainable": true, "moving_variance_initializer": {"class_name": "Ones", "config": {}}, "beta_initializer": {"class_name": "Zeros", "config": {}}, "scale": true, "axis": -1, "gamma_constraint": null, "gamma_regularizer": null, "beta_regularizer": null, "momentum": 0.9997, "center": true}, "inbound_nodes": [[["separable_conv_2_normal_right2_11", 0, 0, {}]]], "name": "separable_conv_2_bn_normal_right2_11"}, {"class_name": "AveragePooling2D", "config": {"name": "normal_left3_11", "trainable": true, "data_format": "channels_last", "pool_size": [3, 3], "padding": "same", "strides": [1, 1]}, "inbound_nodes": [[["normal_bn_1_11", 0, 0, {}]]], "name": "normal_left3_11"}, {"class_name": "AveragePooling2D", "config": {"name": "normal_left4_11", "trainable": true, "data_format": "channels_last", "pool_size": [3, 3], "padding": "same", "strides": [1, 1]}, "inbound_nodes": [[["adjust_bn_11", 0, 0, {}]]], "name": "normal_left4_11"}, {"class_name": "AveragePooling2D", "config": {"name": "normal_right4_11", "trainable": true, "data_format": "channels_last", "pool_size": [3, 3], "padding": "same", "strides": [1, 1]}, "inbound_nodes": [[["adjust_bn_11", 0, 0, {}]]], "name": "normal_right4_11"}, {"class_name": "BatchNormalization", "config": {"beta_constraint": null, "gamma_initializer": {"class_name": "Ones", "config": {}}, "moving_mean_initializer": {"class_name": "Zeros", "config": {}}, "name": "separable_conv_2_bn_normal_left5_11", "epsilon": 0.001, "trainable": true, "moving_variance_initializer": {"class_name": "Ones", "config": {}}, "beta_initializer": {"class_name": "Zeros", "config": {}}, "scale": true, "axis": -1, "gamma_constraint": null, "gamma_regularizer": null, "beta_regularizer": null, "momentum": 0.9997, "center": true}, "inbound_nodes": [[["separable_conv_2_normal_left5_11", 0, 0, {}]]], "name": "separable_conv_2_bn_normal_left5_11"}, {"class_name": "Add", "config": {"trainable": true, "name": "normal_add_1_11"}, "inbound_nodes": [[["separable_conv_2_bn_normal_left1_11", 0, 0, {}], ["separable_conv_2_bn_normal_right1_11", 0, 0, {}]]], "name": "normal_add_1_11"}, {"class_name": "Add", "config": {"trainable": true, "name": "normal_add_2_11"}, "inbound_nodes": [[["separable_conv_2_bn_normal_left2_11", 0, 0, {}], ["separable_conv_2_bn_normal_right2_11", 0, 0, {}]]], "name": "normal_add_2_11"}, {"class_name": "Add", "config": {"trainable": true, "name": "normal_add_3_11"}, "inbound_nodes": [[["normal_left3_11", 0, 0, {}], ["adjust_bn_11", 0, 0, {}]]], "name": "normal_add_3_11"}, {"class_name": "Add", "config": {"trainable": true, "name": "normal_add_4_11"}, "inbound_nodes": [[["normal_left4_11", 0, 0, {}], ["normal_right4_11", 0, 0, {}]]], "name": "normal_add_4_11"}, {"class_name": "Add", "config": {"trainable": true, "name": "normal_add_5_11"}, "inbound_nodes": [[["separable_conv_2_bn_normal_left5_11", 0, 0, {}], ["normal_bn_1_11", 0, 0, {}]]], "name": "normal_add_5_11"}, {"class_name": "Concatenate", "config": {"trainable": true, "name": "normal_concat_11", "axis": -1}, "inbound_nodes": [[["adjust_bn_11", 0, 0, {}], ["normal_add_1_11", 0, 0, {}], ["normal_add_2_11", 0, 0, {}], ["normal_add_3_11", 0, 0, {}], ["normal_add_4_11", 0, 0, {}], ["normal_add_5_11", 0, 0, {}]]], "name": "normal_concat_11"}, {"class_name": "Activation", "config": {"activation": "relu", "trainable": true, "name": "activation_176"}, "inbound_nodes": [[["normal_concat_10", 0, 0, {}]]], "name": "activation_176"}, {"class_name": "Activation", "config": {"activation": "relu", "trainable": true, "name": "activation_177"}, "inbound_nodes": [[["normal_concat_11", 0, 0, {}]]], "name": "activation_177"}, {"class_name": "Conv2D", "config": {"kernel_constraint": null, "kernel_initializer": {"class_name": "VarianceScaling", "config": {"distribution": "normal", "scale": 2.0, "seed": null, "mode": "fan_in"}}, "name": "adjust_conv_projection_12", "bias_regularizer": null, "bias_constraint": null, "activation": "linear", "trainable": true, "data_format": "channels_last", "padding": "same", "strides": [1, 1], "dilation_rate": [1, 1], "kernel_regularizer": null, "filters": 176, "bias_initializer": {"class_name": "Zeros", "config": {}}, "use_bias": false, "activity_regularizer": null, "kernel_size": [1, 1]}, "inbound_nodes": [[["activation_176", 0, 0, {}]]], "name": "adjust_conv_projection_12"}, {"class_name": "Conv2D", "config": {"kernel_constraint": null, "kernel_initializer": {"class_name": "VarianceScaling", "config": {"distribution": "normal", "scale": 2.0, "seed": null, "mode": "fan_in"}}, "name": "normal_conv_1_12", "bias_regularizer": null, "bias_constraint": null, "activation": "linear", "trainable": true, "data_format": "channels_last", "padding": "same", "strides": [1, 1], "dilation_rate": [1, 1], "kernel_regularizer": null, "filters": 176, "bias_initializer": {"class_name": "Zeros", "config": {}}, "use_bias": false, "activity_regularizer": null, "kernel_size": [1, 1]}, "inbound_nodes": [[["activation_177", 0, 0, {}]]], "name": "normal_conv_1_12"}, {"class_name": "BatchNormalization", "config": {"beta_constraint": null, "gamma_initializer": {"class_name": "Ones", "config": {}}, "moving_mean_initializer": {"class_name": "Zeros", "config": {}}, "name": "adjust_bn_12", "epsilon": 0.001, "trainable": true, "moving_variance_initializer": {"class_name": "Ones", "config": {}}, "beta_initializer": {"class_name": "Zeros", "config": {}}, "scale": true, "axis": -1, "gamma_constraint": null, "gamma_regularizer": null, "beta_regularizer": null, "momentum": 0.9997, "center": true}, "inbound_nodes": [[["adjust_conv_projection_12", 0, 0, {}]]], "name": "adjust_bn_12"}, {"class_name": "BatchNormalization", "config": {"beta_constraint": null, "gamma_initializer": {"class_name": "Ones", "config": {}}, "moving_mean_initializer": {"class_name": "Zeros", "config": {}}, "name": "normal_bn_1_12", "epsilon": 0.001, "trainable": true, "moving_variance_initializer": {"class_name": "Ones", "config": {}}, "beta_initializer": {"class_name": "Zeros", "config": {}}, "scale": true, "axis": -1, "gamma_constraint": null, "gamma_regularizer": null, "beta_regularizer": null, "momentum": 0.9997, "center": true}, "inbound_nodes": [[["normal_conv_1_12", 0, 0, {}]]], "name": "normal_bn_1_12"}, {"class_name": "Activation", "config": {"activation": "relu", "trainable": true, "name": "activation_178"}, "inbound_nodes": [[["normal_bn_1_12", 0, 0, {}]]], "name": "activation_178"}, {"class_name": "Activation", "config": {"activation": "relu", "trainable": true, "name": "activation_180"}, "inbound_nodes": [[["adjust_bn_12", 0, 0, {}]]], "name": "activation_180"}, {"class_name": "Activation", "config": {"activation": "relu", "trainable": true, "name": "activation_182"}, "inbound_nodes": [[["adjust_bn_12", 0, 0, {}]]], "name": "activation_182"}, {"class_name": "Activation", "config": {"activation": "relu", "trainable": true, "name": "activation_184"}, "inbound_nodes": [[["adjust_bn_12", 0, 0, {}]]], "name": "activation_184"}, {"class_name": "Activation", "config": {"activation": "relu", "trainable": true, "name": "activation_186"}, "inbound_nodes": [[["normal_bn_1_12", 0, 0, {}]]], "name": "activation_186"}, {"class_name": "SeparableConv2D", "config": {"padding": "same", "use_bias": false, "bias_regularizer": null, "pointwise_initializer": {"class_name": "VarianceScaling", "config": {"distribution": "uniform", "scale": 1.0, "seed": null, "mode": "fan_avg"}}, "bias_constraint": null, "activity_regularizer": null, "trainable": true, "pointwise_constraint": null, "data_format": "channels_last", "depthwise_initializer": {"class_name": "VarianceScaling", "config": {"distribution": "uniform", "scale": 1.0, "seed": null, "mode": "fan_avg"}}, "depthwise_constraint": null, "strides": [1, 1], "pointwise_regularizer": null, "filters": 176, "bias_initializer": {"class_name": "Zeros", "config": {}}, "depth_multiplier": 1, "dilation_rate": [1, 1], "depthwise_regularizer": null, "activation": "linear", "kernel_size": [5, 5], "name": "separable_conv_1_normal_left1_12"}, "inbound_nodes": [[["activation_178", 0, 0, {}]]], "name": "separable_conv_1_normal_left1_12"}, {"class_name": "SeparableConv2D", "config": {"padding": "same", "use_bias": false, "bias_regularizer": null, "pointwise_initializer": {"class_name": "VarianceScaling", "config": {"distribution": "uniform", "scale": 1.0, "seed": null, "mode": "fan_avg"}}, "bias_constraint": null, "activity_regularizer": null, "trainable": true, "pointwise_constraint": null, "data_format": "channels_last", "depthwise_initializer": {"class_name": "VarianceScaling", "config": {"distribution": "uniform", "scale": 1.0, "seed": null, "mode": "fan_avg"}}, "depthwise_constraint": null, "strides": [1, 1], "pointwise_regularizer": null, "filters": 176, "bias_initializer": {"class_name": "Zeros", "config": {}}, "depth_multiplier": 1, "dilation_rate": [1, 1], "depthwise_regularizer": null, "activation": "linear", "kernel_size": [3, 3], "name": "separable_conv_1_normal_right1_12"}, "inbound_nodes": [[["activation_180", 0, 0, {}]]], "name": "separable_conv_1_normal_right1_12"}, {"class_name": "SeparableConv2D", "config": {"padding": "same", "use_bias": false, "bias_regularizer": null, "pointwise_initializer": {"class_name": "VarianceScaling", "config": {"distribution": "uniform", "scale": 1.0, "seed": null, "mode": "fan_avg"}}, "bias_constraint": null, "activity_regularizer": null, "trainable": true, "pointwise_constraint": null, "data_format": "channels_last", "depthwise_initializer": {"class_name": "VarianceScaling", "config": {"distribution": "uniform", "scale": 1.0, "seed": null, "mode": "fan_avg"}}, "depthwise_constraint": null, "strides": [1, 1], "pointwise_regularizer": null, "filters": 176, "bias_initializer": {"class_name": "Zeros", "config": {}}, "depth_multiplier": 1, "dilation_rate": [1, 1], "depthwise_regularizer": null, "activation": "linear", "kernel_size": [5, 5], "name": "separable_conv_1_normal_left2_12"}, "inbound_nodes": [[["activation_182", 0, 0, {}]]], "name": "separable_conv_1_normal_left2_12"}, {"class_name": "SeparableConv2D", "config": {"padding": "same", "use_bias": false, "bias_regularizer": null, "pointwise_initializer": {"class_name": "VarianceScaling", "config": {"distribution": "uniform", "scale": 1.0, "seed": null, "mode": "fan_avg"}}, "bias_constraint": null, "activity_regularizer": null, "trainable": true, "pointwise_constraint": null, "data_format": "channels_last", "depthwise_initializer": {"class_name": "VarianceScaling", "config": {"distribution": "uniform", "scale": 1.0, "seed": null, "mode": "fan_avg"}}, "depthwise_constraint": null, "strides": [1, 1], "pointwise_regularizer": null, "filters": 176, "bias_initializer": {"class_name": "Zeros", "config": {}}, "depth_multiplier": 1, "dilation_rate": [1, 1], "depthwise_regularizer": null, "activation": "linear", "kernel_size": [3, 3], "name": "separable_conv_1_normal_right2_12"}, "inbound_nodes": [[["activation_184", 0, 0, {}]]], "name": "separable_conv_1_normal_right2_12"}, {"class_name": "SeparableConv2D", "config": {"padding": "same", "use_bias": false, "bias_regularizer": null, "pointwise_initializer": {"class_name": "VarianceScaling", "config": {"distribution": "uniform", "scale": 1.0, "seed": null, "mode": "fan_avg"}}, "bias_constraint": null, "activity_regularizer": null, "trainable": true, "pointwise_constraint": null, "data_format": "channels_last", "depthwise_initializer": {"class_name": "VarianceScaling", "config": {"distribution": "uniform", "scale": 1.0, "seed": null, "mode": "fan_avg"}}, "depthwise_constraint": null, "strides": [1, 1], "pointwise_regularizer": null, "filters": 176, "bias_initializer": {"class_name": "Zeros", "config": {}}, "depth_multiplier": 1, "dilation_rate": [1, 1], "depthwise_regularizer": null, "activation": "linear", "kernel_size": [3, 3], "name": "separable_conv_1_normal_left5_12"}, "inbound_nodes": [[["activation_186", 0, 0, {}]]], "name": "separable_conv_1_normal_left5_12"}, {"class_name": "BatchNormalization", "config": {"beta_constraint": null, "gamma_initializer": {"class_name": "Ones", "config": {}}, "moving_mean_initializer": {"class_name": "Zeros", "config": {}}, "name": "separable_conv_1_bn_normal_left1_12", "epsilon": 0.001, "trainable": true, "moving_variance_initializer": {"class_name": "Ones", "config": {}}, "beta_initializer": {"class_name": "Zeros", "config": {}}, "scale": true, "axis": -1, "gamma_constraint": null, "gamma_regularizer": null, "beta_regularizer": null, "momentum": 0.9997, "center": true}, "inbound_nodes": [[["separable_conv_1_normal_left1_12", 0, 0, {}]]], "name": "separable_conv_1_bn_normal_left1_12"}, {"class_name": "BatchNormalization", "config": {"beta_constraint": null, "gamma_initializer": {"class_name": "Ones", "config": {}}, "moving_mean_initializer": {"class_name": "Zeros", "config": {}}, "name": "separable_conv_1_bn_normal_right1_12", "epsilon": 0.001, "trainable": true, "moving_variance_initializer": {"class_name": "Ones", "config": {}}, "beta_initializer": {"class_name": "Zeros", "config": {}}, "scale": true, "axis": -1, "gamma_constraint": null, "gamma_regularizer": null, "beta_regularizer": null, "momentum": 0.9997, "center": true}, "inbound_nodes": [[["separable_conv_1_normal_right1_12", 0, 0, {}]]], "name": "separable_conv_1_bn_normal_right1_12"}, {"class_name": "BatchNormalization", "config": {"beta_constraint": null, "gamma_initializer": {"class_name": "Ones", "config": {}}, "moving_mean_initializer": {"class_name": "Zeros", "config": {}}, "name": "separable_conv_1_bn_normal_left2_12", "epsilon": 0.001, "trainable": true, "moving_variance_initializer": {"class_name": "Ones", "config": {}}, "beta_initializer": {"class_name": "Zeros", "config": {}}, "scale": true, "axis": -1, "gamma_constraint": null, "gamma_regularizer": null, "beta_regularizer": null, "momentum": 0.9997, "center": true}, "inbound_nodes": [[["separable_conv_1_normal_left2_12", 0, 0, {}]]], "name": "separable_conv_1_bn_normal_left2_12"}, {"class_name": "BatchNormalization", "config": {"beta_constraint": null, "gamma_initializer": {"class_name": "Ones", "config": {}}, "moving_mean_initializer": {"class_name": "Zeros", "config": {}}, "name": "separable_conv_1_bn_normal_right2_12", "epsilon": 0.001, "trainable": true, "moving_variance_initializer": {"class_name": "Ones", "config": {}}, "beta_initializer": {"class_name": "Zeros", "config": {}}, "scale": true, "axis": -1, "gamma_constraint": null, "gamma_regularizer": null, "beta_regularizer": null, "momentum": 0.9997, "center": true}, "inbound_nodes": [[["separable_conv_1_normal_right2_12", 0, 0, {}]]], "name": "separable_conv_1_bn_normal_right2_12"}, {"class_name": "BatchNormalization", "config": {"beta_constraint": null, "gamma_initializer": {"class_name": "Ones", "config": {}}, "moving_mean_initializer": {"class_name": "Zeros", "config": {}}, "name": "separable_conv_1_bn_normal_left5_12", "epsilon": 0.001, "trainable": true, "moving_variance_initializer": {"class_name": "Ones", "config": {}}, "beta_initializer": {"class_name": "Zeros", "config": {}}, "scale": true, "axis": -1, "gamma_constraint": null, "gamma_regularizer": null, "beta_regularizer": null, "momentum": 0.9997, "center": true}, "inbound_nodes": [[["separable_conv_1_normal_left5_12", 0, 0, {}]]], "name": "separable_conv_1_bn_normal_left5_12"}, {"class_name": "Activation", "config": {"activation": "relu", "trainable": true, "name": "activation_179"}, "inbound_nodes": [[["separable_conv_1_bn_normal_left1_12", 0, 0, {}]]], "name": "activation_179"}, {"class_name": "Activation", "config": {"activation": "relu", "trainable": true, "name": "activation_181"}, "inbound_nodes": [[["separable_conv_1_bn_normal_right1_12", 0, 0, {}]]], "name": "activation_181"}, {"class_name": "Activation", "config": {"activation": "relu", "trainable": true, "name": "activation_183"}, "inbound_nodes": [[["separable_conv_1_bn_normal_left2_12", 0, 0, {}]]], "name": "activation_183"}, {"class_name": "Activation", "config": {"activation": "relu", "trainable": true, "name": "activation_185"}, "inbound_nodes": [[["separable_conv_1_bn_normal_right2_12", 0, 0, {}]]], "name": "activation_185"}, {"class_name": "Activation", "config": {"activation": "relu", "trainable": true, "name": "activation_187"}, "inbound_nodes": [[["separable_conv_1_bn_normal_left5_12", 0, 0, {}]]], "name": "activation_187"}, {"class_name": "SeparableConv2D", "config": {"padding": "same", "use_bias": false, "bias_regularizer": null, "pointwise_initializer": {"class_name": "VarianceScaling", "config": {"distribution": "uniform", "scale": 1.0, "seed": null, "mode": "fan_avg"}}, "bias_constraint": null, "activity_regularizer": null, "trainable": true, "pointwise_constraint": null, "data_format": "channels_last", "depthwise_initializer": {"class_name": "VarianceScaling", "config": {"distribution": "uniform", "scale": 1.0, "seed": null, "mode": "fan_avg"}}, "depthwise_constraint": null, "strides": [1, 1], "pointwise_regularizer": null, "filters": 176, "bias_initializer": {"class_name": "Zeros", "config": {}}, "depth_multiplier": 1, "dilation_rate": [1, 1], "depthwise_regularizer": null, "activation": "linear", "kernel_size": [5, 5], "name": "separable_conv_2_normal_left1_12"}, "inbound_nodes": [[["activation_179", 0, 0, {}]]], "name": "separable_conv_2_normal_left1_12"}, {"class_name": "SeparableConv2D", "config": {"padding": "same", "use_bias": false, "bias_regularizer": null, "pointwise_initializer": {"class_name": "VarianceScaling", "config": {"distribution": "uniform", "scale": 1.0, "seed": null, "mode": "fan_avg"}}, "bias_constraint": null, "activity_regularizer": null, "trainable": true, "pointwise_constraint": null, "data_format": "channels_last", "depthwise_initializer": {"class_name": "VarianceScaling", "config": {"distribution": "uniform", "scale": 1.0, "seed": null, "mode": "fan_avg"}}, "depthwise_constraint": null, "strides": [1, 1], "pointwise_regularizer": null, "filters": 176, "bias_initializer": {"class_name": "Zeros", "config": {}}, "depth_multiplier": 1, "dilation_rate": [1, 1], "depthwise_regularizer": null, "activation": "linear", "kernel_size": [3, 3], "name": "separable_conv_2_normal_right1_12"}, "inbound_nodes": [[["activation_181", 0, 0, {}]]], "name": "separable_conv_2_normal_right1_12"}, {"class_name": "SeparableConv2D", "config": {"padding": "same", "use_bias": false, "bias_regularizer": null, "pointwise_initializer": {"class_name": "VarianceScaling", "config": {"distribution": "uniform", "scale": 1.0, "seed": null, "mode": "fan_avg"}}, "bias_constraint": null, "activity_regularizer": null, "trainable": true, "pointwise_constraint": null, "data_format": "channels_last", "depthwise_initializer": {"class_name": "VarianceScaling", "config": {"distribution": "uniform", "scale": 1.0, "seed": null, "mode": "fan_avg"}}, "depthwise_constraint": null, "strides": [1, 1], "pointwise_regularizer": null, "filters": 176, "bias_initializer": {"class_name": "Zeros", "config": {}}, "depth_multiplier": 1, "dilation_rate": [1, 1], "depthwise_regularizer": null, "activation": "linear", "kernel_size": [5, 5], "name": "separable_conv_2_normal_left2_12"}, "inbound_nodes": [[["activation_183", 0, 0, {}]]], "name": "separable_conv_2_normal_left2_12"}, {"class_name": "SeparableConv2D", "config": {"padding": "same", "use_bias": false, "bias_regularizer": null, "pointwise_initializer": {"class_name": "VarianceScaling", "config": {"distribution": "uniform", "scale": 1.0, "seed": null, "mode": "fan_avg"}}, "bias_constraint": null, "activity_regularizer": null, "trainable": true, "pointwise_constraint": null, "data_format": "channels_last", "depthwise_initializer": {"class_name": "VarianceScaling", "config": {"distribution": "uniform", "scale": 1.0, "seed": null, "mode": "fan_avg"}}, "depthwise_constraint": null, "strides": [1, 1], "pointwise_regularizer": null, "filters": 176, "bias_initializer": {"class_name": "Zeros", "config": {}}, "depth_multiplier": 1, "dilation_rate": [1, 1], "depthwise_regularizer": null, "activation": "linear", "kernel_size": [3, 3], "name": "separable_conv_2_normal_right2_12"}, "inbound_nodes": [[["activation_185", 0, 0, {}]]], "name": "separable_conv_2_normal_right2_12"}, {"class_name": "SeparableConv2D", "config": {"padding": "same", "use_bias": false, "bias_regularizer": null, "pointwise_initializer": {"class_name": "VarianceScaling", "config": {"distribution": "uniform", "scale": 1.0, "seed": null, "mode": "fan_avg"}}, "bias_constraint": null, "activity_regularizer": null, "trainable": true, "pointwise_constraint": null, "data_format": "channels_last", "depthwise_initializer": {"class_name": "VarianceScaling", "config": {"distribution": "uniform", "scale": 1.0, "seed": null, "mode": "fan_avg"}}, "depthwise_constraint": null, "strides": [1, 1], "pointwise_regularizer": null, "filters": 176, "bias_initializer": {"class_name": "Zeros", "config": {}}, "depth_multiplier": 1, "dilation_rate": [1, 1], "depthwise_regularizer": null, "activation": "linear", "kernel_size": [3, 3], "name": "separable_conv_2_normal_left5_12"}, "inbound_nodes": [[["activation_187", 0, 0, {}]]], "name": "separable_conv_2_normal_left5_12"}, {"class_name": "BatchNormalization", "config": {"beta_constraint": null, "gamma_initializer": {"class_name": "Ones", "config": {}}, "moving_mean_initializer": {"class_name": "Zeros", "config": {}}, "name": "separable_conv_2_bn_normal_left1_12", "epsilon": 0.001, "trainable": true, "moving_variance_initializer": {"class_name": "Ones", "config": {}}, "beta_initializer": {"class_name": "Zeros", "config": {}}, "scale": true, "axis": -1, "gamma_constraint": null, "gamma_regularizer": null, "beta_regularizer": null, "momentum": 0.9997, "center": true}, "inbound_nodes": [[["separable_conv_2_normal_left1_12", 0, 0, {}]]], "name": "separable_conv_2_bn_normal_left1_12"}, {"class_name": "BatchNormalization", "config": {"beta_constraint": null, "gamma_initializer": {"class_name": "Ones", "config": {}}, "moving_mean_initializer": {"class_name": "Zeros", "config": {}}, "name": "separable_conv_2_bn_normal_right1_12", "epsilon": 0.001, "trainable": true, "moving_variance_initializer": {"class_name": "Ones", "config": {}}, "beta_initializer": {"class_name": "Zeros", "config": {}}, "scale": true, "axis": -1, "gamma_constraint": null, "gamma_regularizer": null, "beta_regularizer": null, "momentum": 0.9997, "center": true}, "inbound_nodes": [[["separable_conv_2_normal_right1_12", 0, 0, {}]]], "name": "separable_conv_2_bn_normal_right1_12"}, {"class_name": "BatchNormalization", "config": {"beta_constraint": null, "gamma_initializer": {"class_name": "Ones", "config": {}}, "moving_mean_initializer": {"class_name": "Zeros", "config": {}}, "name": "separable_conv_2_bn_normal_left2_12", "epsilon": 0.001, "trainable": true, "moving_variance_initializer": {"class_name": "Ones", "config": {}}, "beta_initializer": {"class_name": "Zeros", "config": {}}, "scale": true, "axis": -1, "gamma_constraint": null, "gamma_regularizer": null, "beta_regularizer": null, "momentum": 0.9997, "center": true}, "inbound_nodes": [[["separable_conv_2_normal_left2_12", 0, 0, {}]]], "name": "separable_conv_2_bn_normal_left2_12"}, {"class_name": "BatchNormalization", "config": {"beta_constraint": null, "gamma_initializer": {"class_name": "Ones", "config": {}}, "moving_mean_initializer": {"class_name": "Zeros", "config": {}}, "name": "separable_conv_2_bn_normal_right2_12", "epsilon": 0.001, "trainable": true, "moving_variance_initializer": {"class_name": "Ones", "config": {}}, "beta_initializer": {"class_name": "Zeros", "config": {}}, "scale": true, "axis": -1, "gamma_constraint": null, "gamma_regularizer": null, "beta_regularizer": null, "momentum": 0.9997, "center": true}, "inbound_nodes": [[["separable_conv_2_normal_right2_12", 0, 0, {}]]], "name": "separable_conv_2_bn_normal_right2_12"}, {"class_name": "AveragePooling2D", "config": {"name": "normal_left3_12", "trainable": true, "data_format": "channels_last", "pool_size": [3, 3], "padding": "same", "strides": [1, 1]}, "inbound_nodes": [[["normal_bn_1_12", 0, 0, {}]]], "name": "normal_left3_12"}, {"class_name": "AveragePooling2D", "config": {"name": "normal_left4_12", "trainable": true, "data_format": "channels_last", "pool_size": [3, 3], "padding": "same", "strides": [1, 1]}, "inbound_nodes": [[["adjust_bn_12", 0, 0, {}]]], "name": "normal_left4_12"}, {"class_name": "AveragePooling2D", "config": {"name": "normal_right4_12", "trainable": true, "data_format": "channels_last", "pool_size": [3, 3], "padding": "same", "strides": [1, 1]}, "inbound_nodes": [[["adjust_bn_12", 0, 0, {}]]], "name": "normal_right4_12"}, {"class_name": "BatchNormalization", "config": {"beta_constraint": null, "gamma_initializer": {"class_name": "Ones", "config": {}}, "moving_mean_initializer": {"class_name": "Zeros", "config": {}}, "name": "separable_conv_2_bn_normal_left5_12", "epsilon": 0.001, "trainable": true, "moving_variance_initializer": {"class_name": "Ones", "config": {}}, "beta_initializer": {"class_name": "Zeros", "config": {}}, "scale": true, "axis": -1, "gamma_constraint": null, "gamma_regularizer": null, "beta_regularizer": null, "momentum": 0.9997, "center": true}, "inbound_nodes": [[["separable_conv_2_normal_left5_12", 0, 0, {}]]], "name": "separable_conv_2_bn_normal_left5_12"}, {"class_name": "Add", "config": {"trainable": true, "name": "normal_add_1_12"}, "inbound_nodes": [[["separable_conv_2_bn_normal_left1_12", 0, 0, {}], ["separable_conv_2_bn_normal_right1_12", 0, 0, {}]]], "name": "normal_add_1_12"}, {"class_name": "Add", "config": {"trainable": true, "name": "normal_add_2_12"}, "inbound_nodes": [[["separable_conv_2_bn_normal_left2_12", 0, 0, {}], ["separable_conv_2_bn_normal_right2_12", 0, 0, {}]]], "name": "normal_add_2_12"}, {"class_name": "Add", "config": {"trainable": true, "name": "normal_add_3_12"}, "inbound_nodes": [[["normal_left3_12", 0, 0, {}], ["adjust_bn_12", 0, 0, {}]]], "name": "normal_add_3_12"}, {"class_name": "Add", "config": {"trainable": true, "name": "normal_add_4_12"}, "inbound_nodes": [[["normal_left4_12", 0, 0, {}], ["normal_right4_12", 0, 0, {}]]], "name": "normal_add_4_12"}, {"class_name": "Add", "config": {"trainable": true, "name": "normal_add_5_12"}, "inbound_nodes": [[["separable_conv_2_bn_normal_left5_12", 0, 0, {}], ["normal_bn_1_12", 0, 0, {}]]], "name": "normal_add_5_12"}, {"class_name": "Concatenate", "config": {"trainable": true, "name": "normal_concat_12", "axis": -1}, "inbound_nodes": [[["adjust_bn_12", 0, 0, {}], ["normal_add_1_12", 0, 0, {}], ["normal_add_2_12", 0, 0, {}], ["normal_add_3_12", 0, 0, {}], ["normal_add_4_12", 0, 0, {}], ["normal_add_5_12", 0, 0, {}]]], "name": "normal_concat_12"}, {"class_name": "Activation", "config": {"activation": "relu", "trainable": true, "name": "activation_188"}, "inbound_nodes": [[["normal_concat_12", 0, 0, {}]]], "name": "activation_188"}, {"class_name": "GlobalAveragePooling2D", "config": {"trainable": true, "name": "global_average_pooling2d_1", "data_format": "channels_last"}, "inbound_nodes": [[["activation_188", 0, 0, {}]]], "name": "global_average_pooling2d_1"}, {"class_name": "Dense", "config": {"kernel_initializer": {"class_name": "VarianceScaling", "config": {"distribution": "uniform", "scale": 1.0, "seed": null, "mode": "fan_avg"}}, "name": "predictions", "kernel_constraint": null, "bias_regularizer": null, "bias_constraint": null, "activation": "linear", "trainable": true, "kernel_regularizer": null, "bias_initializer": {"class_name": "Zeros", "config": {}}, "units": 1, "use_bias": true, "activity_regularizer": null}, "inbound_nodes": [[["global_average_pooling2d_1", 0, 0, {}]]], "name": "predictions"}], "input_layers": [["input_1", 0, 0]], "output_layers": [["predictions", 0, 0]], "name": "model_1"}, "backend": "tensorflow"}